saves/cnn_arch_4.pth (torch, 602468 bytes, 8 tensors)

palyer.weight f4 [2, 32]
-0.74042225 -0.02497427 -0.5968171 0.39447218 0.55551034 0.41173846 0.42219278 0.7364475
-0.18486191 0.01936205 -0.67582345 0.2173733 -0.18665196 0.028396413 0.44380644 0.030762091
0.94125164 0.20581014 -0.35115957 -0.0008334038 -0.07650259 0.43828157 -0.27196276 -0.0082078995
-0.83764124 0.27335632 -0.43947297 -0.46588814 0.9148272 -0.18477422 -0.2417419 -0.51782
-0.75714374 -0.017806709 -0.6025632 0.40731934 0.5588732 0.17507918 0.41269508 0.7184411
-0.19329466 0.019363286 -0.69020486 0.22774035 0.41578242 0.028960675 0.76251453 0.030235257
0.93008465 0.20063461 -0.35030532 0.018966872 0.15115833 0.3750513 -0.2567977 -0.008934859
-0.835865 0.2705393 -0.44260025 -0.71718395 0.8936539 -0.16772456 -0.23921858 -0.5411963
00000000: 508c 3dbf d796 ccbc 01c9 18bf 42f8 c93e
00000010: ed35 0e3f 62cf d23e a729 d83e d387 3c3f
00000020: 714c 3dbe 299d 9e3c c402 2dbf 1b97 5e3e
00000030: b121 3fbe 989f e83c 993a e33e c800 fc3c
00000040: def5 703f e5bf 523e 30cb b3be c878 5aba
00000050: 64ad 9cbd 7166 e03e b43e 8bbe 6d7a 06bc
00000060: a86f 56bf 5cf5 8b3e 9a02 e1be e488 eebe
00000070: 1e32 6a3f 7435 3dbe 308b 77be da8f 04bf
00000080: 2cd4 41bf 60df 91bc 9541 1abf 298c d03e
00000090: 5012 0f3f f547 333e c54c d33e c2eb 373f
000000a0: 09ef 45be c19f 9e3c 44b1 30bf c434 693e
000000b0: 6fe1 d43e f03e ed3c 2734 433f eeaf f73c
000000c0: 071a 6e3f 2973 4d3e 385b b3be 6a60 9b3c
000000d0: 40c9 1a3e b906 c03e fd7a 83be 8463 12bc
000000e0: 40fb 55bf 2184 8a3e 809c e2be 5e99 37bf
000000f0: 81c6 643f fdbf 2bbe b7f5 74be d78b 0abf

grid.weight f4 [3, 32]
0.76630545 0.029186923 0.5926394 -0.40281197 -0.54575014 -0.15706398 -0.4183748 -0.7230663
0.17740129 -0.014471229 0.6759035 -0.2338665 -0.6721264 -0.02736205 -0.60522044 -0.023995006
-0.9218216 -0.19547059 0.34773213 -0.021852411 0.93482786 -0.8631901 0.27388093 0.017671525
0.82893175 -0.25245252 0.43435603 0.6477173 -0.89951944 0.17950386 0.24732663 0.5389124
0.7330509 0.037744846 0.6016718 -0.38632408 -0.54546356 -0.47896847 -0.42970192 -0.74193543
0.18807381 -0.018383197 0.6753752 -0.21003108 -0.3388933 -0.035184678 -0.00022621975 -0.030218523
-0.9237162 -0.20254746 0.32901633 0.0062870015 -0.23132251 -0.24914068 0.24820307 -0.0064167394
0.84601367 -0.27487996 0.44213307 0.7869945 -0.88846976 0.16623828 0.24219517 0.5150956
0.75391984 0.011673338 0.6006021 -0.39962545 -0.5428897 0.015424123 -0.40683776 -0.712179
0.18141659 -0.019399086 0.69215786 -0.21250296 0.10677687 -0.020835187 -0.3054851 -0.040929563
-0.94210345 -0.20982182 0.35077044 -0.009511203 -0.5267776 -1.150059 0.27055085 0.008036492
0.8295839 -0.27899116 0.45530403 0.3122984 -0.90241534 0.17505352 0.2368984 0.5244635
00000000: 982c 443f 6a19 ef3c 37b7 173f 5f3d cebe
00000010: 48b6 0bbf 61d5 20be 3935 d6be df1a 39bf
00000020: afa8 353e bc18 6dbc 0308 2d3f b37a 6fbe
00000030: 7a10 2cbf 6126 e0bc baef 1abf 2d91 c4bc
00000040: 80fc 6bbf 7129 48be f209 b23e d403 b3bc
00000050: e150 6f3f 07fa 5cbf 1f3a 8c3e e0c3 903c
00000060: df34 543f 7541 81be ea63 de3e cdd0 253f
00000070: e846 66bf dccf 373e 3143 7d3e 2af6 093f
00000080: 39a9 3b3f 579a 1a3d 2a07 1a3f 45cc c5be
00000090: 80a3 0bbf 5b3b f5be e401 dcbe 7bef 3dbf
000000a0: 6c96 403e 5c98 96bc 64e5 2c3f 6312 57be
000000b0: 6c83 adbe cf1d 10bd 6735 6db9 d68c f7bc
000000c0: aa78 6cbf 9a68 4fbe d474 a83e 3103 ce3b
000000d0: cfdf 6cbe bc1e 7fbe f228 7e3e 8343 d2bb
000000e0: 5a94 583f 11bd 8cbe 445f e23e 7978 493f
000000f0: c172 63bf 5e3a 2a3e 0302 783e 4edd 033f
00000100: e400 413f 8741 3f3c 0fc1 193f b59b ccbe
00000110: d2fa 0abf 76b5 7c3c 0a4d d0be 5d51 36bf
00000120: 45c5 393e d5ea 9ebc 4231 313f 609a 59be
00000130: d5ad da3d 8eae aabc 8b68 9cbe c2a5 27bd
00000140: b12d 71bf 88db 56be 2f98 b33e e0d4 1bbc
00000150: e6da 06bf 2235 93bf a485 8a3e 7eab 033c
00000160: 9c5f 543f eed7 8ebe 9c1d e93e 93e5 9f3e
00000170: b104 67bf 3b41 333e 7f95 723e 3d43 063f

conv1.weight f4 [32, 32, 3, 3]
0.13706759 0.013996135 -0.20772426 0.033206977 0.04267885 -0.07044585 0.014687746 -0.11638223
0.3743181 -0.121590555 0.037312377 0.15373705 0.062124263 -0.015904391 0.027902126 -0.31459948
0.12162718 0.05477069 -0.21712913 -0.0017708632 0.38572583 0.08118503 -0.062670335 0.01911752
-0.22080803 0.02792658 -0.16307431 -0.050116967 0.22634071 -0.30734596 0.095703244 -0.26561388
-0.08885375 0.14147422 0.15942694 0.14359784 -0.16977753 0.060217004 -0.21568309 -0.029012062
0.14111383 -0.048849296 0.0038412337 -0.033249144 0.18637551 -0.24603118 0.2726312 -0.10460316
-0.33486742 0.2219964 -0.06679408 0.046968367 0.3417024 0.04227455 0.24720904 0.00590639
-0.06158067 -0.07658148 0.1228047 -0.059270542 -0.43280828 -0.055299416 0.042507406 -0.07868274
0.44437727 -0.011841413 -0.19387154 0.3977166 0.20998387 -0.09102146 0.37797213 0.06094219
-0.19876832 -0.12825224 0.27608472 -0.0008697174 0.054023433 0.2539644 -0.03745477 -0.13012348
-0.38233006 0.17248327 0.122502804 -0.29459557 -0.10609605 -0.11057637 -0.060172535 0.24160767
-0.21339838 0.09699933 -0.1769178 0.2609962 -0.12586042 -0.036969468 -0.23671122 0.0067695603
-0.062158953 0.00027671625 -0.0058637313 -0.12462582 0.1913309 -0.37577406 0.14895654 -0.07595639
-0.23697753 0.14404793 -0.04940144 0.13878393 0.1399126 -0.24018675 0.22404423 0.22190686
0.121041134 0.10632279 0.05780184 0.056422453 0.06250813 -0.1399718 0.08246086 0.0375616
0.16630892 0.026982076 -0.20289458 0.3086644 -0.012030149 -0.027590297 -0.31603938 -1.0636382
-0.46281877 -0.10524649 -0.34179178 -0.4611575 -0.10306269 -0.09440619 -0.10560998 0.0047126887
0.07364987 -0.13243292 0.06977096 -0.15773933 0.38867366 -0.17685792 0.016987137 0.00072754687
-0.22853725 -0.0725499 -0.02000773 -0.048949774 0.0023332762 0.10203522 0.24291879 -0.12839483
-0.076420404 0.02303554 0.013011369 0.09367733 0.15158169 -0.14840992 -0.045203507 -0.029058183
0.09225192 0.077154204 0.067354016 0.13924243 -0.08226179 0.10949337 -0.23663785 -0.1673864
0.066142656 -0.0920452 0.060316496 -0.18309571 -0.16177586 0.2854615 0.07552645 -0.22187155
-0.24329549 0.07880288 0.008801568 -0.006354946 0.034612484 0.46271452 -0.050571162 -0.20968416
-0.25603235 0.019443467 -0.06511972 -0.48606133 -0.3446494 0.4645535 -0.07506899 0.32699522
0.687776 -0.10492307 0.18027282 0.11662985 -0.19960697 0.07503347 -0.075424455 0.3596584
-0.19161285 0.043663386 0.1307544 0.15329884 0.04136729 -0.15104619 -0.03704453 -0.052252993
-0.07430644 -0.29604715 -0.031398598 -0.028241275 -0.060125 -0.042187173 0.2492599 0.19166522
-0.061883263 0.05534048 -0.35855356 0.06329995 -0.046830807 -0.05775746 0.20957917 -0.06999825
0.077367656 0.31425634 0.12516563 -0.3066633 -0.18371545 0.041570194 0.0324303 -0.047757592
0.16907999 -0.07046977 -0.1681302 -0.081543654 -0.2126187 0.19913971 -0.18348971 -0.22207661
0.0022104606 0.13091773 0.031813502 0.03778164 0.21188061 -0.03424654 0.12646647 -0.21413136
-0.16664892 0.05807158 -0.109543264 0.045801736 0.020173533 0.0002974135 -0.10006334 0.024784679
00000000: 725b 0c3e 0c50 653c abb5 54be 0a04 083d
00000010: 05d0 2e3d ea45 90bd dfa4 703c ce59 eebd
00000020: 9fa6 bf3e 7804 f9bd ddd4 183d 3f6d 1d3e
00000030: 0376 7e3d ed49 82bc 0093 e43c 2f13 a1be
00000040: ac17 f93d 3b57 603d 1957 5ebe 4f1c e8ba
00000050: db7d c53e 5644 a63d 4e59 80bd 589c 9c3c
00000060: 801b 62be 48c6 e43c f4fc 26be 7347 4dbd
00000070: dcc5 673e 735c 9dbe 1000 c43d 8bfe 87be
00000080: f4f8 b5bd 9ede 103e d140 233e 500b 133e
00000090: 29da 2dbe 1ba6 763d 07dc 5cbe b4aa edbc
000000a0: 2580 103e 3316 48bd 35bd 7b3b 4130 08bd
000000b0: 39d9 3e3e 99ef 7bbe 5196 8b3e 2e3a d6bd
000000c0: be73 abbe 0653 633e 56cb 88bd e761 403d
000000d0: 9ef3 ae3e 1428 2d3d 5e24 7d3e 648a c13b
000000e0: 033c 7cbd c0d6 9cbd 0881 fb3d abc5 72bd
000000f0: 0c99 ddbe a481 62bd 3f1c 2e3d 6b24 a1bd
00000100: 6b85 e33e 7c02 42bc 4386 46be 83a1 cb3e
00000110: 0306 573e 7669 babd 9085 c13e 859e 793d
00000120: ec89 4bbe 8e54 03be fa5a 8d3e bffd 63ba
00000130: ad47 5d3d 9f07 823e 2c6a 19bd 173f 05be
00000140: c4c0 c3be 749f 303e c0e2 fa3d 3bd5 96be
00000150: e348 d9bd dd75 e2bd 7a77 76bd 0068 773e
00000160: 1b85 5abe 96a7 c63d f129 35be 4ba1 853e
00000170: 8ee1 00be 4c6d 17bd 6d64 72be 30d3 dd3b
00000180: 639a 7ebd 3a14 9139 8b24 c0bb d23b ffbd
00000190: 3fec 433e 7565 c0be 1088 183e 068f 9bbd
000001a0: 3daa 72be 4d81 133e 2a59 4abd 601d 0e3e
000001b0: 4045 0f3e 84f3 75be da6b 653e 8d3b 633e
000001c0: 6ae4 f73d c3bf d93d 9fc1 6c3d 3b1b 673d
000001d0: 4304 803d c454 0fbe 3de1 a83d 31da 193d
000001e0: e34c 2a3e 8409 dd3c 99c3 4fbe 4309 9e3e
000001f0: 1a1a 45bc 0c05 e2bc eacf a1be 4c25 88bf
00000200: 95f6 ecbe 798b d7bd 55ff aebe d61c ecbe
00000210: 8812 d3bd 0858 c1bd 0c4a d8bd e66c 9a3b
00000220: bed5 963d 7f9c 07be 14e4 8e3d 6b86 21be
00000230: 3c00 c73e 3e1a 35be 9c28 8b3c d8b8 3e3a
00000240: ab05 6abe 0b95 94bd 40e7 a3bc 8f7f 48bd
00000250: e1e9 183b d7f7 d03d b4bf 783e ef79 03be
00000260: 4d82 9cbd 07b5 bc3c a32d 553c e6d9 bf3d
00000270: 3b38 1b3e c5f8 17be 5027 39bd 6d0b eebc
00000280: 93ee bc3d 0603 9e3d e7f0 893d 9195 0e3e
00000290: df78 a8bd 0f3e e03d 3151 72be 5767 2bbe
000002a0: cd75 873d 3282 bcbd 6e0e 773d 717d 3bbe
000002b0: 92a8 25be 0228 923e 9dad 9a3d 4c32 63be
000002c0: 7422 79be 6863 a13d 7434 103c 273d d0bb
000002d0: d2c5 0d3d ebe8 ec3e b523 4fbd 72b7 56be
000002e0: ac16 83be e847 9f3c 7d5d 85bd 08dd f8be
000002f0: e375 b0be f5d9 ed3e c5bd 99bd eb6b a73e
00000300: 1712 303f e8e1 d6bd 7099 383e a1db ee3d
00000310: c565 4cbe 26ab 993d 2378 9abd 2525 b83e
00000320: 2936 44be 61d8 323d 7be4 053e 5ffa 1c3e
00000330: bf70 293d daab 1abe 01bc 17bd 3c07 56bd
00000340: fa2d 98bd 7e93 97be d19b 00bd 3f5a e7bc
00000350: a245 76bd 75cc 2cbd fd3d 7f3e e343 443e
00000360: 4e79 7dbd b3ac 623d 5594 b7be 67a3 813d
00000370: a9d1 3fbd 1693 6cbd ec9b 563e 3e5b 8fbd
00000380: ef72 9e3d 35e6 a03e 6b2b 003e f902 9dbe
00000390: e71f 3cbe 8245 2a3d a2d5 043d 779d 43bd
000003a0: 4e23 2d3e 7452 90bd 532a 2cbe 5c00 a7bd
000003b0: b7b8 59be 48eb 4b3e bae4 3bbe 0d68 63be
000003c0: 60dd 103b 4c0f 063e e04e 023d ecc0 1a3d
000003d0: 3bf7 583e 1a46 0cbd 6d80 013e 4045 5bbe
000003e0: 04a6 2abe 77dc 6d3d 3858 e0bd 9a9a 3b3d
000003f0: f742 a53c 2aee 9b39 02ee ccbd 3d09 cb3c

conv1.bias f4 [32]
-0.32225138 -0.08303082 -0.24314329 -0.15518856 -0.32582676 -0.33042535 -0.20557739 -0.18633115
-0.36509153 0.05797864 -0.12856892 0.14565252 -0.323751 -0.0776255 -0.20255768 -0.19894576
-0.1944452 -0.04677154 -0.20295508 -0.21169251 -0.24878329 -0.0894084 -0.1493434 0.010636997
-0.12692924 -0.25043464 -0.24427341 -0.25941798 -0.22669539 -0.058852013 -0.13119991 -0.12768057
00000000: 22fe a4be 100c aabd 8efa 78be c0e9 1ebe
00000010: c4d2 a6be 832d a9be e182 52be 98cd 3ebe
00000020: 47ed babe 037b 6d3d 92a7 03be ef25 153e
00000030: b1c2 a5be 1efa 9ebd 486b 4fbe 70b8 4bbe
00000040: a41c 47be 8493 3fbd 75d3 4fbe ecc5 58be
00000050: 0cc1 7ebe c01b b7bd 7aed 18be cd46 2e3c
00000060: bdf9 01be f838 80be cf22 7abe 6fd2 84be
00000070: d622 68be cf0e 71bd 4559 06be b2be 02be

conv2.weight f4 [32, 32, 3, 3]
0.46542507 -0.20914723 0.32169822 0.20662652 0.1370205 -0.1275167 -0.16559604 0.3600769
-0.21151347 -0.27069458 0.34021017 -0.20086145 -0.12251483 -0.13369584 0.004859511 0.019439217
-0.18444012 -0.33801576 -0.056747496 -0.045019682 -0.08983523 0.11029434 -0.11312554 -0.34040052
-0.42801732 -0.070762224 -0.1611992 -0.38388404 -1.1356082 -0.021438973 -0.35574108 -0.58374554
-0.45154163 -0.007141201 0.04241554 -0.27959427 0.357901 -0.22545247 0.0059171813 0.06942487
0.1788978 0.24843745 0.17720234 0.11035833 0.028878812 -0.25942996 0.23492794 -0.06088899
0.2999735 -0.75058615 -0.16797882 -0.42580214 0.02219069 -0.28524813 -0.31638977 0.18062767
-0.19162247 -0.20928362 -0.1847295 -0.2379746 0.20249729 -0.4647468 0.10311679 0.0446837
-0.3295516 0.21804875 -0.7498306 -0.052331466 0.1671445 0.06953574 0.081058696 -0.124799296
0.07073674 -0.01722781 0.11871562 0.09239032 -0.11323767 -0.05119425 0.5622992 0.24728292
0.30082518 0.22410148 -0.15763552 -0.50444424 -0.2394565 0.09444846 -0.16863215 0.23438287
0.12036328 0.026009433 0.20984197 0.06198529 0.02577882 0.37464032 -0.6893934 -0.20635457
-0.08954349 -0.44439587 -0.13374351 -0.40508738 -0.4826427 -0.46433657 0.015988568 0.3107493
-0.22108981 -0.31377712 -0.057596028 -0.18776774 -0.14514236 -0.078473724 0.004125474 0.06526028
0.039615914 0.13260977 -0.06359266 0.0429407 -0.2164521 0.038534142 -0.065624945 0.01375579
-0.04891299 0.051628385 0.019896649 0.06556893 -0.041547127 -0.10147022 -0.6394971 -0.3467726
-0.12837845 -0.48253313 0.11913513 -0.64803267 -0.23397416 0.24704434 -0.15440337 -0.64519584
-0.20563193 0.39669937 -0.1982981 -0.14551744 0.09202793 0.017015493 -0.68597496 -0.6812831
0.32000536 -0.11908078 0.060578134 -0.49769333 -0.020370018 0.088717245 -0.18182123 -0.20678912
-0.025278792 -0.51384777 -0.6055491 -0.17454441 -0.02575256 0.19149889 -0.73125124 0.06312948
-0.6354049 0.22893186 0.25230286 -0.036625966 0.44748133 0.21000756 0.1809044 -0.35131723
-0.1959032 0.49122915 -0.54999286 -0.30382192 0.22709383 -0.024301022 0.0045480216 0.16119884
-0.23615403 0.10231254 0.43743497 0.24676436 0.19158694 0.2840657 -0.47005162 0.37678143
-1.1118804 -0.13221365 0.30582866 -0.29445532 -0.19783434 0.009301078 0.02434933 -0.03586791
-0.01792753 0.027522173 -0.026354061 0.006106759 0.026793474 0.00035704894 -0.03716848 0.021768894
0.017557617 -0.08868576 -0.056887906 -0.024785921 0.04283532 0.012451356 0.03802224 -0.28615722
-0.0823313 0.11881042 -0.05122847 -0.007415745 0.43574908 -0.45256194 0.13598861 0.35554147
-0.17893185 -0.4691764 -0.05599643 0.27967814 0.1387151 0.037367303 -0.14596704 -0.057512704
-0.53545785 -0.47507194 -0.089496434 -0.37385544 0.039246805 -0.6162996 -0.62177235 -0.28623545
0.01993113 0.010645097 -0.78683084 0.111853756 0.013930662 0.17384997 -0.025120184 0.61880875
-0.6945826 -0.13503093 -0.43408075 0.23290104 -0.11875577 0.11520281 -0.36829433 -0.26172197
-0.1725795 -0.16696507 -0.09175636 -0.49454334 -0.95396245 0.040929668 -0.396058 -0.37511966
00000000: 324c ee3e b12a 56be a1b5 a43e e795 533e
00000010: 1a4f 0c3e bd93 02be 0292 29be 005c b83e
00000020: fd96 58be 7b98 8abe 0730 ae3e a0ae 4dbe
00000030: 0ee9 fabd 90e7 08be 883c 9f3b fe3e 9f3c
00000040: dfdd 3cbe 6710 adbe 1070 68bd 8f66 38bd
00000050: 88fb b7bd 00e2 e13d 5dae e7bd fa48 aebe
00000060: 1625 dbbe c9eb 90bd 6711 25be 738c c4be
00000070: 9c5b 91bf c9a0 afbc b223 b6be 5970 15bf
00000080: 7730 e7be bc00 eabb ebbb 2d3d fb26 8fbe
00000090: cd3e b73e 03dd 66be eae4 c13b a02e 8e3d
000000a0: fc30 373e 6366 7e3e 8874 353e 8c03 e23d
000000b0: 4293 ec3c 01d4 84be f390 703e bc66 79bd
000000c0: 2096 993e 6a26 40bf a402 2cbe bd02 dabe
000000d0: 40c9 b53c 0b0c 92be d7fd a1be 76f6 383e
000000e0: ae38 44be 724e 56be bb29 3dbe 9daf 73be
000000f0: 735b 4f3e 4bf3 edbe e52e d33d 4106 373d
00000100: fdba a8be 2c48 5f3e e6f4 3fbf 8559 56bd
00000110: ee27 2b3e c168 8e3d 1a02 a63d c696 ffbd
00000120: 6dde 903d 5621 8dbc 2d21 f33d 2337 bd3d
00000130: 27e9 e7bd 10b1 51bd d7f2 0f3f bc37 7d3e
00000140: c205 9a3e dc7a 653e 356b 21be 4223 01bf
00000150: 1634 75be 326e c13d e8ad 2cbe 1002 703e
00000160: 0681 f63d bc11 d53c d0e0 563e 4ae4 7d3d
00000170: 1b2e d33c dbd0 bf3e 167c 30bf 9d4e 53be
00000180: 9462 b7bd db87 e3be 0ff4 08be 9d67 cfbe
00000190: f21c f7be 86bd edbe 75fa 823c 881a 9f3e
000001a0: 5e65 62be 65a7 a0be d0e9 6bbd 3046 40be
000001b0: 33a0 14be d5b6 a0bd fc2e 873b 2fa7 853d
000001c0: 4c44 223d dbca 073e de3c 82bd 96e2 2f3d
000001d0: 9fa5 5dbe fad5 1d3d 5f66 86bd f75f 613c
000001e0: fd58 48bd 4978 533d 4cfe a23c 0149 863d
000001f0: 522d 2abd 9ecf cfbd 15b6 23bf 2e8c b1be
00000200: a475 03be 950e f7be 1efd f33d 78e5 25bf
00000210: ec96 6fbe 31f9 7c3e eb1b 1ebe 8e2b 25bf
00000220: 2d91 52be 2e1c cb3e a80e 4bbe 8602 15be
00000230: 2479 bc3d 1364 8b3c 0e9c 2fbf 9268 2ebf
00000240: bed7 a33e a0e0 f3bd c720 783d a9d1 febe
00000250: 06df a6bc 63b1 b53d 582f 3abe 87c0 53be
00000260: 7815 cfbc 878b 03bf 4405 1bbf c5bb 32be
00000270: 08f7 d2bc 4918 443e 4833 3bbf 074a 813d
00000280: e5a9 22bf 1d6d 6a3e d72d 813e 1c05 16bd
00000290: 461c e53e 390c 573e 013f 393e dadf b3be
000002a0: d99a 48be 6382 fb3e 55cc 0cbf 8c8e 9bbe
000002b0: 498b 683e f012 c7bc 9207 953b 4f11 253e
000002c0: 5dd2 71be 3d89 d13d 7af7 df3e ccaf 7c3e
000002d0: 5e2f 443e 0f71 913e 9baa f0be 7fe9 c03e
000002e0: 1952 8ebf 0463 07be 9395 9c3e d9c2 96be
000002f0: 1695 4abe 8c63 183c 3f78 c73c 3bea 12bd
00000300: c1dc 92bc 2e76 e13c 79e4 d7bc 351b c83b
00000310: fd7d db3c 4c32 bb39 fa3d 18bd ae54 b23c
00000320: fed4 8f3c e1a0 b5bd 4b03 69bd d80b cbbc
00000330: 1774 2f3d c600 4c3c 35bd 1b3d 3383 92be
00000340: 509d a8bd e152 f33d f2d4 51bd c7ff f2bb
00000350: 811a df3e 33b6 e7be 9940 0b3e 8809 b63e
00000360: e939 37be e437 f0be 835c 65bd f931 8f3e
00000370: 550b 0e3e 750e 193d 6278 15be 7192 6bbd
00000380: c413 09bf a13c f3be e849 b7bd fb69 bfbe
00000390: 42c1 203d d0c5 1dbf 792c 1fbf 748d 92be
000003a0: 9c46 a33c c668 2e3c bf6d 49bf 9513 e53d
000003b0: 6e3d 643c ba05 323e d8c8 cdbc 406a 1e3f
000003c0: 2ad0 31bf 8c45 0abe d53f debe 9c7d 6e3e
000003d0: 3a36 f3bd 73ef eb3d 1391 bcbe 6c00 86be
000003e0: aeb8 30be e4f8 2abe c2ea bbbd c934 fdbe
000003f0: e236 74bf dea5 273d 1dc8 cabe af0f c0be

conv2.bias f4 [32]
0.11762074 0.019000133 -0.13852316 0.06441436 0.023417238 -0.018737791 -0.038646948 -0.2269498
0.006903624 -0.104528114 0.022543468 -0.052753944 -0.10523785 -0.07598913 0.003604751 -0.10221981
-0.0345277 0.22221851 -0.05146175 -0.029740674 0.058917392 -0.1371607 -0.14713563 -0.16166504
-0.018779663 -0.18455511 0.002987316 0.09541257 0.12761 -0.24136566 -0.17048036 0.08077697
00000000: 24e3 f03d 2ba6 9b3c 04d9 0dbe adeb 833d
00000010: 82d5 bf3c ff7f 99bc 434c 1ebd 8765 68be
00000020: cc37 e23b d612 d6bd 14ad b83c 8514 58bd
00000030: f186 d7bd 30a0 9bbd b03d 6c3b 9f58 d1bd
00000040: eb6c 0dbd 408d 633e 8ec9 52bd b7a2 f3bc
00000050: 5d53 713d db73 0cbe b9aa 16be 858b 25be
00000060: cfd7 99bc 04fc 3cbe d9c6 433b aa67 c33d
00000070: 32ac 023e 8f28 77be 6792 2ebe 656e a53d

mlp1.weight f4 [64, 2048]
0.24371642 -0.2603759 -0.170021 -3.9079528 -0.46695155 -0.63135463 -4.6378174 0.0015363301
-0.0036036933 -2.0127134 -11.403832 -13.880969 -0.66104233 -0.1287459 -3.452434 0.00097246416
-0.16418754 -22.480473 0.65376425 -0.48309913 0.41701856 0.3951461 -13.126729 -0.6856412
-1.2199575 1.2524443 1.2367923 -5.644389 -0.14699015 0.6625332 -0.06914309 -10.354166
-0.9981991 -1.008334 -0.098789275 -9.901218 1.4591509 -1.8126569 0.013164794 -0.061943885
-1.3899359 -1.5284925 0.5384715 0.8246295 0.9479969 -2.119861 -0.746567 0.35796005
-0.3297674 0.18490009 -0.8779392 -1.3381637 -5.7600975 0.505779 0.016198227 -2.213641
0.23851645 -0.42393634 0.050277103 -0.8897127 0.43622813 -0.3161328 -0.8301788 -1.1737927
-0.7984257 0.43110004 -0.121752664 -3.9545043 1.2701235 -1.1007792 -0.25458786 -0.039135747
-2.5366898 -0.023833293 0.12180071 0.14453533 0.62295735 -0.12981541 0.23125823 0.50380224
-0.061199326 -0.19340178 -0.16632181 -0.7586221 -1.7923815 -0.5494081 0.019465635 -0.3903512
-0.4270901 0.20082805 -0.2306097 -0.2955554 -0.6096208 -0.23680091 -1.0869645 -0.5255925
-1.0542512 -0.6680938 -0.1333034 -0.20451038 0.6627223 -0.6696343 -0.491966 -0.037881974
-1.4946787 -0.07217745 0.073329665 0.08758119 0.49736285 -0.25768888 0.16348569 -0.10600515
-0.989568 -0.09712711 -0.26717275 -3.5663314 -0.08257166 -0.3709839 0.24947086 -0.23748896
-0.22293329 -0.09013551 -0.08044043 -0.14291877 -0.4636286 -0.3503658 -0.24259979 -0.052666947
-0.860855 -0.15600993 -0.18662567 -1.0192881 0.6930579 -0.1471984 0.11673119 -0.0105612585
-0.80490303 -1.4518259 -0.16769713 0.06727308 0.45540595 -0.13992599 0.058427203 -0.25553352
-0.61874235 -0.2663264 -0.31294274 -0.58258635 0.602854 -0.8577629 -0.057388663 -0.77522856
-0.41781875 -0.24713759 -0.18155293 -0.16541457 -0.570302 -0.98675936 -0.46913806 -0.086427525
-0.37717313 0.06910155 -0.09630167 -0.17935045 -0.06652749 0.057483353 -0.22231463 -0.031055512
-0.7639011 -0.9731604 0.09283374 -0.2053154 0.6934537 -0.046437364 0.31518438 -0.36947367
-0.19999291 -0.07572535 -0.11768496 -0.8875359 0.040712327 -0.38852555 0.06067924 -0.22247085
-0.42192468 -0.15364382 -0.12005267 0.13527709 -0.2774301 -0.6749199 -0.50092345 0.02781815
0.18986946 0.35010752 -0.16649427 -0.036079235 0.22609052 -0.041674834 0.015378282 -0.028413326
-0.03310218 -0.5338482 0.18043764 -0.16520892 0.5527981 0.04306252 0.43435022 -0.4259397
-1.1211382 -0.043679424 -0.25309977 -0.32901922 0.24460135 -0.024064714 0.55745983 -0.3123178
-0.13800372 -0.104403675 -0.12586427 0.42249203 0.022796875 -0.44640967 0.0998558 -0.094316594
-0.30015445 0.020568071 -0.10699558 -0.451072 0.35052022 0.50671524 -0.08848547 -0.051989853
-0.10807498 -0.05908375 -0.09361977 0.079813905 -0.3595145 0.15469894 0.14518306 0.13435942
-0.49286732 0.107130386 -0.41151643 -0.67420536 -0.03797535 -0.25620502 0.60339594 -0.22047259
0.0834324 0.16862074 -0.057065997 0.3280028 0.45664203 -0.17486654 -0.307417 -0.12250896
00000000: cc90 793e fd4f 85be fc19 2ebe e61b 7ac0
00000010: 4614 efbe 75a0 21bf 0069 94c0 af5e c93a
00000020: f12b 6cbb 4cd0 00c0 1976 36c1 7318 5ec1
00000030: 123a 29bf f7d5 03be aef4 5cc0 f7ec 7e3a
00000040: c720 28be 02d8 b3c1 185d 273f c558 f7be
00000050: 7583 d53e 9750 ca3e 1507 52c1 2f86 2fbf
00000060: 9127 9cbf 1850 a03f 364f 9e3f d69e b4c0
00000070: 9684 16be c79b 293f e49a 8dbd aaaa 25c1
00000080: fa89 7fbf 1711 81bf 0852 cabd 646b 1ec1
00000090: 75c5 ba3f 2405 e8bf 26b1 573c dfb8 7dbd
000000a0: 6be9 b1bf a4a5 c3bf 45d9 093f eb1a 533f
000000b0: edaf 723f cdab 07c0 041f 3fbf 8a46 b73e
000000c0: 46d7 a8be 7356 3d3e a0c0 60bf f348 abbf
000000d0: b852 b8c0 bc7a 013f 25b2 843c 4bac 0dc0
000000e0: a83d 743e 2f0e d9be 5def 4d3d 36c4 63bf
000000f0: 4b59 df3e 29dc a1be 9986 54bf d73e 96bf
00000100: a065 4cbf 25b9 dc3e 7659 f9bd 9916 7dc0
00000110: 6893 a23f 55e6 8cbf 5759 82be ce4c 20bd
00000120: 2059 22c0 0a3e c3bc a772 f93d 1201 143e
00000130: 227a 1f3f 55ee 04be f5ce 6c3e 2ff9 003f
00000140: 25ac 7abd 1e0b 46be 4450 2abe 0f35 42bf
00000150: c26c e5bf 02a6 0cbf 6576 9f3c 1ddc c7be
00000160: 8eab dabe dea5 4d3e f324 6cbe 0a53 97be
00000170: 1c10 1cbf f07b 72be a721 8bbf 3b8d 06bf
00000180: b4f1 86bf 3208 2bbf b080 08be 2b6b 51be
00000190: 2ba8 293f 276d 2bbf f8e2 fbbe 212a 1bbd
000001a0: a251 bfbf c5d1 93bd dd2d 963d c45d b33d
000001b0: 58a6 fe3e ccef 83be cb68 273e 3a19 d9bd
000001c0: 5454 7dbf 94ea c6bd deca 88be c63e 64c0
000001d0: 551b a9bd 9af1 bdbe 4a75 7f3e 4e30 73be
000001e0: a048 64be f798 b8bd f4bd a4bd 4c59 12be
000001f0: ba60 edbe 2563 b3be 146c 78be 4cb9 57bd
00000200: fe60 5cbf 11c1 1fbe cd1a 3fbe 0878 82bf
00000210: 3e6c 313f 2dbb 16be c310 ef3d 2109 2dbc
00000220: 200e 4ebf 6ed5 b9bf ccb8 2bbe 78c6 893d
00000230: f82a e93e c248 0fbe 5d51 6f3d 4ad5 82be
00000240: e665 1ebf ef5b 88be 083a a0be 6124 15bf
00000250: a454 1a3f 5996 5bbf 6010 6bbd 6175 46bf
00000260: 57ec d5be a311 7dbe 03e9 39be 7062 29be
00000270: 50ff 11bf 439c 7cbf dd32 f0be ea00 b1bd
00000280: d61c c1be 1d85 8d3d cf39 c5bd a5a7 37be
00000290: 913f 88bd aa73 6b3d 72a6 63be 2168 febc
000002a0: 068f 43bf 0a21 79bf 9e1f be3d 333e 52be
000002b0: 2f86 313f 1b35 3ebd d95f a13e a72b bdbe
000002c0: f1ca 4cbe e415 9bbd d004 f1bd 8e35 63bf
000002d0: f8c1 263d d2ec c6be cb8a 783d 66cf 63be
000002e0: 8306 d8be ce54 1dbe 2dde f5bd 1486 0a3e
000002f0: 510b 8ebe 8dc7 2cbf 853c 00bf e4e2 e33c
00000300: 246d 423e 4b41 b33e 797d 2abe d2c7 13bd
00000310: 4684 673e 3bb3 2abd 31f5 7b3c 10c3 e8bc
00000320: 2796 07bd 47aa 08bf a5c4 383e 872c 29be
00000330: 2d84 0d3f 5362 303d 2763 de3e c514 dabe
00000340: 7581 8fbf 32e9 32bd 4b96 81be 3575 a8be
00000350: c778 7a3e 5d23 c5bc b0b5 0e3f 1ee8 9fbe
00000360: d950 0dbe 98d1 d5bd 90e2 00be e050 d83e
00000370: 83c0 ba3c cf8f e4be 3381 cc3d 0f29 c1bd
00000380: d8ad 99be 5f7e a83c 8020 dbbd e9f2 e6be
00000390: 6377 b33e 17b8 013f df37 b5bd 50f3 54bd
000003a0: 6a56 ddbd cd01 72bd b9bb bfbd 7975 a33d
000003b0: 4912 b8be 6669 1e3e deaa 143e 8495 093e
000003c0: 1b59 fcbe 2d67 db3d 48b2 d2be b998 2cbf
000003d0: 0a8c 1bbd 4e2d 83be 2878 1a3f 91c3 61be
000003e0: 9bde aa3d eaaa 2c3e 09be 69bd fcef a73e
000003f0: fccc e93e 3710 33be c365 9dbe fae5 fabd

mlp1.bias f4 [64]
-0.044228144 -0.0049576284 0.1290333 -0.08900441 -0.05909244 0.15418299 0.07598613 0.07104214
-0.10271565 0.21693237 0.111009635 0.00745312 -0.02056214 0.015979614 0.24040101 -0.10744627
0.06725222 0.1702673 -0.11608629 -0.11263249 -0.13879833 -0.23088121 0.04810444 0.12483404
-0.024705699 0.04996547 -0.048486546 -2.2018564 -2.2323446 -0.06884999 0.14527251 0.052954733
0.13667458 0.03167934 -0.076446414 -2.1933398 -2.2085462 -0.5314462 -0.01133221 0.027677907
0.15303464 0.14137845 -0.07261783 -0.028156344 -0.14971258 -0.08890168 0.05114555 0.12494289
0.12795427 0.113683544 -0.059459623 -0.00911086 0.079886384 0.023743859 0.10134568 -0.005850533
0.0047992 0.0035603563 0.11983109 0.087854266 0.074375995 0.13249907 -0.015512843 0.0354567
00000000: 9228 35bd 9a73 a2bb 4e21 043e f247 b6bd
00000010: ea0a 72bd 25e2 1d3e 9e9e 9b3d 8b7e 913d
00000020: 955c d2bd 8523 5e3e 0559 e33d 4d39 f43b
00000030: ef71 a8bc aee7 823c af2b 763e ca0c dcbd
00000040: 88bb 893d 8d5a 2e3e a6be edbd ddab e6bd
00000050: 2621 0ebe 206c 6cbe 2909 453d fda8 ff3d
00000060: 9b63 cabc 98a8 4c3d d499 46bd 37eb 0cc0
00000070: bcde 0ec0 3901 8dbd 51c2 143e 10e7 583d
00000080: 6cf4 0b3e 32c2 013d f08f 9cbd ae5f 0cc0
00000090: d258 0dc0 dc0c 08bf bcaa 39bc c7bc e23c
000000a0: 1db5 1c3e 83c5 103e a8b8 94bd 22a8 e6bc
000000b0: 414e 19be 1612 b6bd ff7d 513d 0fe2 ff3d
000000c0: 7206 033e ebd2 e83d ef8b 73bd b745 15bc
000000d0: 799b a33d 7b82 c23c 538e cf3d d4b5 bfbb
000000e0: 9c42 9d3b de54 693b 016a f53d f0ec b33d
000000f0: 7152 983d d6ad 073e 9429 7ebc 0b3b 113d
