saves/cnn_arch_1.pth (torch, 115618 bytes, 9 tensors)

palyer.weight f4 [2, 32]
000000 9e a0 7c bf fa 93 62 3f c3 07 25 bc e1 6f 0c be
       -0.9868258 0.88507044 -0.010072651 -0.13714553
000010 d0 58 28 bf 9c 76 27 bf bb 2b 08 bf d4 c5 98 be
       -0.6576052 -0.6541536 -0.5319173 -0.2983843
000020 29 da df 3e 75 ce 79 3d 77 19 29 bf e8 f4 18 bf
       0.4372113 0.06098791 -0.6605448 -0.597487
000030 06 17 07 3e 48 58 ed 3e 11 65 e5 be 0a 6f 0b 3f
       0.13192376 0.46356416 -0.4480367 0.5446631
000040 ad d9 41 bf 2e 40 0d 3f 98 03 fe be 87 64 71 bd
       -0.7572277 0.55176055 -0.49612117 -0.05893376
000050 21 7e db be 32 93 2e 3d 45 59 cf be 25 33 8c 3e
       -0.42869666 0.042620845 -0.40497795 0.2738277
000060 c9 bf 4d bd 42 b6 8c 3e f1 6c 94 3f 6e 62 66 3e
       -0.05023173 0.27482802 1.1595746 0.22498485
000070 00 f1 7e bf 3c 4b 1c 3f ce 47 44 3f 6b 3b b9 be
       -0.99586487 0.610523 0.76672065 -0.36178145
000080 cf 53 79 bf f9 10 fb 3e 38 bb aa bc 81 15 3a be
       -0.97393507 0.49036387 -0.020841226 -0.18172266
000090 89 92 9b 3e ca db 0c 3f 80 d5 47 bf b3 cd 98 be
       0.30385235 0.5502287 -0.7806015 -0.29844436
0000a0 88 65 f6 be 42 a7 de 3e ef 8f 29 bf 03 41 0e 3e
       -0.48124337 0.43486983 -0.6623525 0.13891988
0000b0 14 8b 2f 3f 21 24 e6 3e 11 f2 e0 be ea e2 19 bf
       0.6857159 0.4494944 -0.43934682 -0.6011187
0000c0 b6 f1 56 bf c5 f5 22 bf 79 42 e6 3e 73 1f 91 3d
       -0.8396257 -0.63656265 0.4497259 0.070860766
0000d0 75 bf f4 3e 9d 6e 38 be 0c a6 44 be ee be a6 be
       0.4780232 -0.18010946 -0.19203967 -0.32567543
0000e0 6e 9b eb be 2a 29 02 3e 8c 90 04 3f a8 39 97 3f
       -0.4601702 0.12711015 0.5178306 1.181447
0000f0 a7 c8 68 be 20 16 50 3f f8 3d 4c 3f 04 99 dd 3c
       -0.22732793 0.8128376 0.79782057 0.027050503

grid.weight f4 [3, 32]
000000 4c d6 7c 3f 25 2d a6 3e 3f e2 7d 3c 88 b0 22 3f
       0.9876449 0.32456318 0.015495836 0.63550615
000010 0f 10 57 3f 68 af a4 be c2 fe 69 3f 72 9c 9a 3e
       0.8400888 -0.32165074 0.91404355 0.30197483
000020 2b 64 c9 be 30 a7 91 be 76 88 29 3f dd fe e4 bf
       -0.39334235 -0.28447866 0.6622385 -1.7890278
000030 88 7a a0 bf 95 e9 82 be ea 12 ed 3e 47 a8 2e 3f
       -1.2537394 -0.25568834 0.46303493 0.6822552
000040 a9 ec ab 3e 6e 09 11 40 f7 f6 ea bb f1 41 57 bf
       0.33578995 2.2662005 -0.007170554 -0.84084994
000050 b5 0f 07 40 c3 7b 14 3f 27 28 a1 3f 44 56 78 3f
       2.1103337 0.58001345 1.2590379 0.9700663
000060 bd a9 81 3e 2c 80 4d 3f 9f c2 af 3f aa 56 1d 3e
       0.25324813 0.802737 1.3731269 0.15365091
000070 e5 8a 22 40 63 68 5d bf fa 58 f2 be 4b dd 85 3c
       2.5397274 -0.86487406 -0.4733351 0.016340872
000080 7c a3 7c 3f da bc 90 3f 1a cd 8c 3b e9 2d 75 be
       0.9868696 1.1307633 0.004296911 -0.23943295
000090 5f 61 ac bf f3 23 91 bd 8a 6d b1 3e 3d b6 96 3e
       -1.3467215 -0.07086935 0.34653884 0.29435912
0000a0 e0 e2 61 bf cd 90 2b be ff b0 29 3f cd af 49 bf
       -0.8823681 -0.16754456 0.662857 -0.78783876
0000b0 19 cf 94 3f da cf 8d be a3 e2 d1 3e 27 63 00 3e
       1.1625701 -0.2769764 0.40993223 0.12537824
0000c0 5f 4f a9 3f 60 7f 05 c0 c6 37 63 3e 6a 57 c8 3e
       1.3227347 -2.0858994 0.22189245 0.39129192
0000d0 41 61 4e bf 59 35 50 bf c5 0c 08 3f 3c 27 6a bc
       -0.8061715 -0.813314 0.53144485 -0.014291581
0000e0 e1 4e f9 be 26 06 1c bf 0d d8 83 3f 7b 22 74 bf
       -0.48692992 -0.6094688 1.0300308 -0.95365113
0000f0 e9 1f 34 be 3d 1b 1f be c2 98 45 bf f6 2e 60 be
       -0.17590298 -0.15537734 -0.77186215 -0.21892914
000100 6c 6a 7b 3f fa 8a 9a be 94 4d e1 3c 7c fe d1 bd
       0.9820926 -0.30184156 0.027502812 -0.10253617
000110 fc 84 62 3f 04 12 f5 3e 70 00 39 3f 32 d2 99 3e
       0.8848417 0.47865307 0.7226629 0.3004318
000120 10 0c 1e 3f 80 83 e6 bd de b5 2b 3f 71 e7 0c 40
       0.61737156 -0.112555504 0.6707438 2.201626
000130 5b 69 11 bf dc 0d ea be 7f 24 a2 3e 3f 64 86 be
       -0.56801385 -0.457137 0.3166847 -0.26248357
000140 ab bf a9 3e da e8 a1 bf 30 19 1b 3f 22 ea 54 3f
       0.33154044 -1.2649186 0.6058531 0.8316976
000150 30 d0 84 bf c4 46 e4 3f f6 d6 ee bf 4f 6d 93 3f
       -1.0376034 1.7834096 -1.8659351 1.1517733
000160 cc 6c a3 3f 23 cd 86 3f 5a 7b 11 be a8 2f e5 3e
       1.2767577 1.0531353 -0.14207211 0.4476292
000170 62 b7 60 bf 77 9e 3e 3c 40 6c 81 bf 95 c4 0f 3f
       -0.8777982 0.011634461 -1.011116 0.56159335

conv1.weight f4 [32, 32, 3, 3]
000000 04 61 70 3d 19 db 02 be e4 de 12 be 66 65 6a 3d
       0.05868627 -0.12778892 -0.14342839 0.057225607
000010 cd 99 25 3e c3 af 01 be 8d b6 4e 3e bb 5f 72 3c
       0.16171952 -0.12664704 0.20186825 0.014793332
000020 fb fb f2 bd da 13 1f bf cf 32 39 bd 81 e4 23 3d
       -0.11864468 -0.62139666 -0.04521447 0.04001284
000030 2c 25 27 bf 72 39 15 3e 11 b6 4b 3e e4 60 cd be
       -0.65291095 0.14572695 0.19893672 -0.40112984
000040 94 7e 4c be ee 39 31 be 7f 88 0f 3d 9a e5 2f bd
       -0.1997016 -0.17307255 0.035042282 -0.042943574
000050 72 e5 49 bd fd 54 0e 3c 95 8f 2e 3d ff 28 3a 3d
       -0.04929108 0.008687255 0.0426174 0.045449253
000060 64 8a 7f 3b 08 70 20 bc d4 d6 aa bc 0e 48 5d 3e
       0.00389924 -0.009792335 -0.020854391 0.21609518
000070 36 ec 6d be c8 d7 09 bf c5 3e 03 3e 40 13 2f bb
       -0.23234639 -0.5384488 0.12816913 -0.0026714355
000080 0f cc 68 be 48 e6 44 3e 18 74 72 3d b4 84 1f 3e
       -0.22734092 0.1922847 0.059192747 0.15577966
000090 aa 74 c1 3e fb 7b ac 3d 41 48 89 3d 6b 76 8a 3e
       0.3778432 0.08422085 0.067032345 0.2704347
0000a0 82 5f 95 bd 36 da 24 bd 3a 15 ad 3d 19 84 b7 3d
       -0.07293607 -0.040247165 0.08451314 0.089607425
0000b0 ec 0e 45 3e 21 ef 05 3f f4 d9 67 3e 63 73 e7 3e
       0.19243973 0.52318007 0.22641736 0.4520522
0000c0 8b f1 05 3f e8 4f 13 3e c0 2a a0 3e 48 55 5b 3e
       0.5232169 0.1438595 0.31282616 0.21419251
0000d0 1a d6 33 3d 1c 2b 6f 3e 3e 94 ae bc 26 7e 39 be
       0.043905355 0.23356289 -0.021310922 -0.18114528
0000e0 c2 70 92 be 0c 45 91 bd a0 91 08 be 13 b9 2d be
       -0.28601652 -0.07093248 -0.13336802 -0.16965131
0000f0 26 ff 19 be f6 0c 36 3d df 1c 82 3d 18 a0 1f bc
       -0.15038738 0.044445954 0.06353163 -0.009742759
000100 4f 0a 1f 3e 0b 03 5b 3c 9f 62 8f 3d 0b 02 64 3c
       0.15531276 0.013367425 0.07001232 0.013916503
000110 fc af 59 bd 65 7b e7 3c 3c 2b 89 bd b8 40 ad bd
       -0.053146347 0.028257081 -0.066976994 -0.0845961
000120 36 88 39 bd e1 46 d1 3a ac 2c 01 bd 47 73 8d bd
       -0.045295916 0.0015966558 -0.031536743 -0.06906753
000130 29 cf 59 be 13 18 0d be 35 db 6e be 49 73 54 bc
       -0.21270432 -0.13778715 -0.23325808 -0.012966939
000140 80 fb 65 bc 71 16 38 3e f6 4f 43 3e 44 6b bb 3e
       -0.014037013 0.1797731 0.19073471 0.36605275
000150 66 54 36 3e 82 72 f5 3d 62 c5 70 3e bf ae 6f 3d
       0.17805633 0.11984731 0.23512796 0.05851626
000160 10 d3 bd 3b 45 f0 c7 3d 0e 96 97 3d 9c cb 1c bd
       0.005792983 0.09762625 0.074016675 -0.038280115
000170 7d 61 28 3d ba 8b be 3d 40 54 51 bd 1f f9 5d bd
       0.041108597 0.093039945 -0.051105738 -0.05419266
000180 28 5a 57 3d ba 97 7a bd e9 45 0b be 50 5c 01 3e
       0.052576214 -0.061179854 -0.13600887 0.1263287
000190 aa fa b0 3e db 9a 12 3f 03 04 91 3e 6a 6c 19 be
       0.34566242 0.5726754 0.28323373 -0.14982763
0001a0 30 66 1c 3e 46 26 4b be 77 ba 28 3d 8b 09 21 3e
       0.15273356 -0.19838819 0.04119345 0.15726297
0001b0 94 0a ef bd 13 c8 3a 3e 21 60 a4 3e 41 4d 02 be
       -0.116719395 0.18240385 0.3210459 -0.12724783
0001c0 a8 7b 1c 3e b2 c9 4e 3e bf 2b 8c bd 01 af 2c bd
       0.15281546 0.20194128 -0.068442814 -0.042159084
0001d0 77 f6 aa bd d5 84 b5 be f3 c6 3d bd f4 3b 40 be
       -0.08347791 -0.35452905 -0.04633231 -0.1877287
0001e0 59 e3 e4 be fe 43 11 3e e1 ac e9 3d f6 ed 37 be
       -0.44704702 0.14186093 0.11409927 -0.17961869
0001f0 65 de 34 be 2d 99 fb bd 6d 29 ff 3e c5 57 dd bd
       -0.17662962 -0.12285075 0.49836293 -0.10807756
000200 0d be a4 be 79 4b ee 3e f4 17 9c bd 53 26 8f be
       -0.32176247 0.46541956 -0.07621756 -0.27958927
000210 20 03 57 3f 00 ad 80 3e c0 bf 8e 3d 40 5b 1f bf
       0.83989143 0.2513199 0.06970167 -0.6224861
000220 74 99 9d be 38 af 06 bf 34 ee 21 bf 89 93 80 bd
       -0.30781138 -0.5261111 -0.63254094 -0.0627814
000230 fb f7 96 be 3a c4 84 be 2a 1e c8 bd 6e db 8f be
       -0.2948607 -0.2593096 -0.09771378 -0.280971
000240 c9 9c c2 bc c1 0b 84 3d 7a 07 16 3d db 46 6b 3d
       -0.023756402 0.064475544 0.036628224 0.05744062
000250 25 65 59 3d 8f e3 92 3c 2a 8e 15 3e 72 43 bd 3c
       0.053074975 0.017930774 0.14605013 0.02310345
000260 00 66 f8 bd 53 13 f4 3d bb 0c 90 be 5c 3c 0a bf
       -0.1212883 0.11917748 -0.28134713 -0.5399835
000270 68 d4 39 3d 87 05 da bd b3 3a 92 be 3b aa 16 3e
       0.045368582 -0.106455855 -0.2856041 0.14713375
000280 76 78 d6 3d 4b c6 dc 3c 6f 4a 8c 3d 73 03 4a 3e
       0.10472195 0.026950022 0.068501346 0.19727878
000290 e8 ed ae 3e bc 80 c0 3d a8 9e c9 3d d6 bb 9a 3e
       0.34165883 0.09399554 0.098447144 0.30221432
0002a0 62 26 20 bd 9f 0f a9 bd 3c 6b 37 3e 04 61 50 be
       -0.039099105 -0.082549326 0.17912 -0.20349509
0002b0 76 f4 77 3e b0 27 33 3f b6 50 23 be f5 4b 9b 3c
       0.24214348 0.69982433 -0.15948758 0.018957118
0002c0 aa 2f 6c 3e 64 58 b8 be ca 0f be bd 53 0d ff bc
       0.23065057 -0.36004937 -0.09280355 -0.031134283
0002d0 0b e8 9e 3e f8 37 dc bd 94 40 09 bf 5b 46 cb 3d
       0.3103641 -0.10752863 -0.53614163 0.099255286
0002e0 ff 04 3e 3d 8c b7 86 bd aa b5 49 3e da 90 e7 3d
       0.046391483 -0.065779775 0.19698206 0.11306925
0002f0 6e d0 d6 3d 7b 33 74 be 9e 57 85 3d 59 8c ba 3d
       0.104889736 -0.23847763 0.06510852 0.091088004
000300 ac cf 4b be c0 32 eb bd 19 0c 48 ba 5b d8 d1 be
       -0.1990344 -0.11484289 -0.0007631197 -0.4098538
000310 0e b3 0b bd 5f 8b e8 3d 07 63 a1 3e 9d f6 58 be
       -0.034106307 0.11354708 0.31520864 -0.21187826
000320 b9 2b 09 bf 32 cc 43 3e 1a 9e 27 3e 4b b8 2b be
       -0.5358234 0.19120863 0.16368905 -0.16769521
000330 d4 1a 1e 3f 67 b8 30 3e 0d 1e 04 3d d9 a8 23 bf
       0.61759686 0.17257844 0.03225522 -0.63929516
000340 61 78 f9 bd a3 fe 43 3c aa 30 3e bf b3 9b 55 bc
       -0.121811636 0.011962566 -0.74293005 -0.01303761
000350 1c cb 90 3d 4e 98 27 bf 06 70 8e be d3 1c f2 bd
       0.0706999 -0.65466774 -0.27819842 -0.11821904
000360 08 2c 18 be cd 1e bc bc 91 6a 05 3e 69 23 a5 bd
       -0.14860547 -0.022963906 0.13028933 -0.080633946
000370 d6 da 5b be f7 7c 91 bd 35 0a cb be 25 28 43 bd
       -0.21470198 -0.07103913 -0.39656225 -0.047645707
000380 b0 fb 09 3d 7e 1d 9b be 3c 1d 62 bd 6a 4f aa bc
       0.033687294 -0.30295938 -0.05520366 -0.02078982
000390 ca fb c6 be 47 81 0e bc 06 e8 07 3e 27 7e d6 be
       -0.38863975 -0.008697814 0.13272104 -0.41893122
0003a0 5c 2c 2e be 0c 97 44 bd 23 c6 31 bf ff a2 f9 bd
       -0.1700911 -0.047995612 -0.6944296 -0.12189292
0003b0 45 24 1e be 37 b8 2c bf c9 58 01 3e f5 8b 46 3e
       -0.15443523 -0.6746859 0.12631525 0.19389327
0003c0 6b 30 d4 be cc 58 41 be 32 7e 16 be e5 4d 19 3d
       -0.4144319 -0.1888153 -0.14696577 0.0374278
0003d0 dd c3 06 3e ae 39 55 3e 28 e9 e5 bd b7 3e ca 3d
       0.13160653 0.20822784 -0.11226112 0.09875243
0003e0 db 81 6e 3e c5 41 42 be 95 85 3b 3c 6f 51 03 3e
       0.23291723 -0.18970402 0.011445423 0.12824033
0003f0 00 40 a0 3e 39 00 16 be 8c b9 28 bf 3f 07 80 3e
       0.31298828 -0.14648522 -0.6590812 0.25005528

conv1.bias f4 [32]
000000 2e f5 f5 3d 16 5a 44 3e fa bd 71 3d 5b bd 21 3e
       0.12009655 0.1917499 0.059019066 0.1579489
000010 fe 20 a4 bd c2 d7 2d 3f a0 10 ff bc 73 1e 27 3e
       -0.08014105 0.67907345 -0.031135857 0.16320209
000020 5d 63 1e bd c6 b8 91 be 1e b7 31 3e 22 b3 57 bd
       -0.03866898 -0.28461283 0.1735501 -0.05266107
000030 89 1d 03 be 1b 5f eb 3c 70 fd d0 3d 29 60 21 bd
       -0.12804236 0.028731873 0.10204589 -0.039398346
000040 39 22 18 be 93 0f bb bd b0 c4 e4 bd 03 56 58 3e
       -0.14856805 -0.0913383 -0.11170328 0.21126561
000050 ca ec c7 bd cd 33 9b 3d a9 7f 23 3d 5e 4b 25 be
       -0.09761961 0.075782396 0.039916668 -0.16142032
000060 70 47 c0 3d 58 b3 97 bd 20 0e 38 3e d2 f1 15 be
       0.093886256 -0.07407254 0.17974138 -0.14643028
000070 b7 28 b7 be 22 72 77 be 10 57 30 3f 06 da 29 be
       -0.3577325 -0.24164632 0.68882847 -0.16587076

conv2.weight f4 [32, 32, 3, 3]
000000 26 86 51 3e 32 ec d2 bc 95 30 3e bd aa 89 83 3d
       0.2046133 -0.025747392 -0.04643305 0.06422742
000010 41 84 0e bf 74 6e a2 3e 2a 58 df 3d 43 31 b7 be
       -0.55670553 0.31724894 0.10905488 -0.3577977
000020 4f 6f d8 3e 77 48 b0 3e fb 23 55 bc 41 5b d2 be
       0.42272422 0.34430286 -0.013009067 -0.41085246
000030 d2 f3 bb bd fb 2e 24 3d 1e d4 3e bc 9a a6 9e be
       -0.091773644 0.040083867 -0.011647252 -0.30986482
000040 a3 c1 90 be f2 d7 12 3f 02 5c 0b 3d bc c0 b3 be
       -0.28272733 0.57360756 0.034023292 -0.35107982
000050 2f 69 bf be ff e4 a9 bc 41 02 33 be 05 9f 5f bf
       -0.37384936 -0.020739077 -0.17481329 -0.8735202
000060 b0 de 9f be 6a 16 ab 3e 24 36 5c be 7f 54 55 3d
       -0.31224585 0.33415538 -0.21505028 0.052082535
000070 d6 8f dd bd 61 b4 45 3a fb 95 4b 3e 40 08 dc be
       -0.1081845 0.0007541832 0.19881432 -0.42975044
000080 75 fd 33 be 4f f2 7c be 09 03 7b bd d9 d9 f5 3e
       -0.17577155 -0.24701808 -0.06128219 0.48017767
000090 a8 6c e6 bc 7a f1 d1 bd 86 dc a6 3e ba 16 2e 3e
       -0.028127983 -0.10251136 0.3259012 0.17000857
0000a0 97 20 52 3e 78 52 54 3e 40 ae 25 3f d0 58 2c 3e
       0.20520245 0.20734584 0.6471901 0.16830754
0000b0 37 22 9d 3e af 19 cf bd e0 1a ad 3e 6a 14 09 bf
       0.30690166 -0.10112321 0.33809566 -0.53546774
0000c0 4c 1e 07 3f 07 79 d9 3e de f6 b7 be 9f 6d 2d be
       0.52780604 0.4247515 -0.35930532 -0.16936348
0000d0 db bc a9 3d e9 61 3e 3e 59 94 cf 3c 4f 71 22 be
       0.082879744 0.18592037 0.025339292 -0.15863536
0000e0 69 b9 62 be 71 69 f3 3e d1 80 a3 be d4 18 2f 3e
       -0.22141041 0.47541383 -0.31934217 0.17099315
0000f0 74 37 de 3e 2e 7a e4 be 82 09 cb 3e 2b e3 bf 3e
       0.43401682 -0.44624466 0.3965569 0.37478003
000100 a9 e7 01 3f e9 99 06 3e 12 de 28 bb 2b b1 cf 3e
       0.5074411 0.1314465 -0.002576713 0.40564856
000110 75 b7 8e bd 4b ad 15 be 0e c2 1d be fe a5 c5 bc
       -0.069685854 -0.14616887 -0.15406057 -0.024127003
000120 58 f9 04 bd 10 e0 1b be ee b6 a0 3e 44 be 71 3d
       -0.032464355 -0.15222192 0.31389564 0.059019342
000130 2c 36 eb bd 7f 55 8c 3d dd dc 8b bd 55 86 cd be
       -0.11484942 0.068522446 -0.06829236 -0.4014155
000140 d8 ed 1d 3e 5c 1c 50 be f6 b0 c4 3e b2 37 90 bd
       0.15422761 -0.20323318 0.3841626 -0.07041873
000150 88 2d a8 bd 27 97 13 3c 7e 72 85 3e 0a 07 76 be
       -0.082118094 0.0090082055 0.26063913 -0.24026123
000160 6c f5 a3 3e 7f 1d 06 bf 85 00 5e 3e 9c f2 de be
       0.3202318 -0.5238876 0.21679886 -0.4354447
000170 74 15 aa 3d 53 33 eb 3b ef 8c 23 be 67 a4 08 3f
       0.08304873 0.007177749 -0.1597173 0.5337586
000180 ff ab b4 bc 3d c3 2d be 1f 33 a3 3d ec ab ac be
       -0.02205467 -0.16969009 0.07968735 -0.33724916
000190 17 c0 72 3d 90 5f 7b bd dd 83 c1 3e b8 63 a4 bd
       0.059265222 -0.061370432 0.37795916 -0.08026832
0001a0 07 5c 09 3f 5b 12 a5 be fc 4f e6 bd 81 82 ea 3d
       0.5365605 -0.32240567 -0.112457246 0.11450673
0001b0 dd d8 25 be a0 96 1d bf 85 bd 0b bf e9 f0 a9 3e
       -0.16196008 -0.6155796 -0.5458606 0.33191612
0001c0 62 38 a9 be 5f d4 3f be d9 7e b1 bd e0 26 42 bc
       -0.3305083 -0.18733357 -0.086667724 -0.011850089
0001d0 54 7c 8c 3e 31 40 ec be 1f 2c 97 3d 2d 8b 2f bd
       0.27438605 -0.46142724 0.07381462 -0.042857338
0001e0 fc c5 8c 3d 82 17 5b be b7 35 25 3f a8 55 5b be
       0.068737 -0.21395686 0.6453509 -0.21419394
0001f0 87 66 97 be b9 39 b8 bd 8c b3 b3 be 02 f3 88 bd
       -0.2957041 -0.08995385 -0.3509792 -0.06686975
000200 4f d8 e1 bd 8a 64 7f 3d af b0 03 3f 92 95 50 bf
       -0.11027586 0.06235174 0.5144147 -0.81478226
000210 cf bb 3b bf 25 61 3d 3d ac 22 f4 3e 79 84 5a 3e
       -0.7333345 0.046235222 0.47682703 0.21339597
000220 8a e9 c5 3e 57 72 47 bf 3c 29 24 3c 34 64 0d 3f
       0.3865474 -0.77908844 0.010019597 0.5523102
000230 51 d8 82 be 3f f9 a9 3d be ab 44 3e 0f e2 82 be
       -0.2555566 0.08299493 0.1920614 -0.25563094
000240 9e 63 cf 3d 49 f2 cf 3e 0e df 8b be 73 a5 37 3d
       0.10126422 0.40614536 -0.27318615 0.04483552
000250 da 9b e5 be 1d 04 5f be ee e2 2b 3e e9 2e 1a bf
       -0.44845468 -0.21778913 0.16785786 -0.6022783
000260 ff 86 72 be 1c 62 23 be 89 60 00 be f3 46 1a 3e
       -0.2368431 -0.15955395 -0.12536825 0.15066127
000270 1b a6 28 3e 1d 47 fa be 7e dd b9 be 74 94 82 be
       0.16469614 -0.4888238 -0.36301798 -0.25503886
000280 24 24 81 be 8a 85 99 3d 3d 16 b4 bd 54 d4 e4 be
       -0.25222886 0.07496174 -0.08793304 -0.44693244
000290 a0 5f 35 be 25 4c 51 3e fd cf 8f be b0 c4 5a be
       -0.1771226 0.20439203 -0.2808837 -0.21364093
0002a0 47 5e 90 be 08 ac a1 be 64 12 0d bf c1 26 58 3d
       -0.28196928 -0.31576562 -0.55106187 0.052771334
0002b0 98 a1 93 bd ea ae 62 3e e4 5c bb 3e 9f ea 3a 3d
       -0.07208556 0.22137037 0.36594307 0.04563391
0002c0 07 11 a6 be 81 c6 68 be c1 bd cd bd 93 77 74 bc
       -0.32434866 -0.22731973 -0.10045958 -0.014921087
0002d0 8f 73 85 3d dd 2f c6 be 49 c0 2b 3e a8 d8 e6 bd
       0.06516182 -0.38708392 0.1677257 -0.11271793
0002e0 91 0f 11 be 7b a8 18 bf 06 35 b7 bb 3f 12 80 bd
       -0.14166094 -0.5963208 -0.0055910377 -0.0625348
0002f0 94 3b 73 be 63 b3 10 3f cf 47 e4 3e 03 0d 88 bd
       -0.23753196 0.5652372 0.44586036 -0.06643107
000300 74 60 8f bd 4d 6e c4 3e 15 05 3d 3e a6 f7 28 3f
       -0.07000819 0.38365403 0.1845897 0.6600288
000310 7c 66 bb be bf fd 3e be d5 fc 21 be a2 35 bf 3e
       -0.36601627 -0.18651484 -0.15819104 0.37345606
000320 bc e3 5e bd f5 d9 a9 3e 83 51 3a bd 9b a0 60 be
       -0.054416403 0.331741 -0.045487892 -0.21936266
000330 6a 86 57 be f8 bb 1a bf d3 b5 7b be cc 6a e2 bc
       -0.21047369 -0.6044307 -0.24581079 -0.027638815
000340 10 28 e3 be de 55 2b 3e d3 64 51 be 2f ac 93 be
       -0.44366503 0.16731974 -0.20448618 -0.28842303
000350 e7 f1 17 be 71 8d c5 bd ef 1e 24 bf be f3 a5 bc
       -0.14838372 -0.096461184 -0.641097 -0.020257827
000360 f4 1e 99 3e f6 20 96 3e 33 22 ef be 29 87 a0 be
       0.29906428 0.29322022 -0.4670578 -0.3135312
000370 64 16 12 bf 10 9d 19 bf 00 8a 2f 3e 33 44 a9 be
       -0.57065415 -0.60005283 0.17142487 -0.33059844
000380 24 2a 52 3e 64 f0 a2 3e ad e9 d2 be 54 49 c8 bd
       0.20523888 0.31824028 -0.41193905 -0.09779611
000390 5c 93 2a 3e 57 33 4d 3e f3 c0 f3 3c fb 59 e5 bc
       0.16657776 0.20039116 0.029755091 -0.027997008
0003a0 ff eb 43 bd 73 40 85 bf be a3 d3 bd fb 44 1f 3e
       -0.047832485 -1.0410293 -0.10333966 0.15553658
0003b0 97 c0 c0 bd e6 a8 51 be 62 43 b2 bd 49 53 f0 be
       -0.094117336 -0.20474586 -0.087042585 -0.46938542
0003c0 9e 57 06 3e b2 ce 4b be 48 30 ad 3e 72 6a 24 bf
       0.13119361 -0.19903067 0.33825898 -0.6422492
0003d0 e9 af 94 3d 95 2a 7e bd 4c a7 83 3e ab 87 32 3d
       0.07260115 -0.06205233 0.25713575 0.043586414
0003e0 7b 21 eb 3d 59 60 8d bd d0 8a 33 3e f3 83 98 3b
       0.11480995 -0.069031425 0.17533422 0.0046544014
0003f0 7d c5 54 3d ce 5a 50 be a7 9a c9 be a4 83 71 3d
       0.051946152 -0.20347139 -0.39375803 0.058963433

conv2.bias f4 [32]
000000 e1 99 92 3e 72 41 ad 3d b6 99 37 be 00 ef f7 3e
       0.28633025 0.08459748 -0.1792973 0.4842453
000010 00 42 a7 3d d8 4f 2e 3e 27 c4 6c 3d c8 20 0e be
       0.081668854 0.17022645 0.057804253 -0.13879693
000020 24 06 29 3f 7e ec 40 3e 2e d4 12 be c0 9a f0 3e
       0.66024995 0.18840215 -0.14338753 0.46993065
000030 3d b0 3b be 08 6f 8e 3e 5f ec da 3d 96 b6 91 3e
       -0.18328948 0.27819085 0.106896155 0.28459615
000040 ef 16 b0 3e e7 4f 47 be 4c 4d 3c be 4f 11 aa be
       0.34392497 -0.19464074 -0.18388861 -0.3321633
000050 27 67 98 bd 37 75 e3 3d b4 00 a0 3d 12 d9 87 3e
       -0.0744155 0.11106341 0.07812634 0.265328
000060 4b 39 21 be 76 d9 17 3e 37 10 26 3f dc 59 63 3e
       -0.15744512 0.14829049 0.6486849 0.22202247
000070 cb 01 d4 bd 8d f5 de 3d 96 5e b7 3e 99 2c 41 3f
       -0.103519045 0.10886679 0.3581435 0.75458676

conv3.weight f4 [32, 32, 3, 3]
000000 e7 46 35 3e 43 e2 48 bf 3b d6 0f 3e 35 f9 20 3f
       0.17702828 -0.7847025 0.14046566 0.6288026
000010 b2 2f a0 be db ce b4 3d df 31 f8 bd a9 6f b6 3e
       -0.3128639 0.08828517 -0.12118887 0.35632065
000020 05 f6 46 3d d2 0b 5e bf 86 59 8c 3e f4 7f 66 3d
       0.048574466 -0.86736786 0.2741205 0.05627437
000030 f6 09 19 3f 7c 48 3b 3e c2 15 25 be 6b f5 94 be
       0.59780824 0.1828937 -0.16121581 -0.2909349
000040 4d 0f 02 be 8d 9c 6c bf 43 b7 3b 3d 77 a1 95 3c
       -0.1270115 -0.9242638 0.04582907 0.018265469
000050 67 ab 97 3b 3c 48 19 be c2 16 96 be ba 9a 5d 3e
       0.004628587 -0.14968961 -0.29314238 0.21641055
000060 59 52 bf 3e 9c e8 c1 be 88 a9 f8 3d 8e b6 b5 bf
       0.37367514 -0.3787278 0.121417105 -1.4196336
000070 4b 5f c6 3e f2 d9 26 bf 48 c8 86 c0 ca 1f 37 bd
       0.38744578 -0.6517631 -4.2119484 -0.04470805
000080 9c b8 21 3f c0 fc 81 bc 76 73 11 bf ad 69 c8 3f
       0.63172317 -0.01586759 -0.56816804 1.565725
000090 47 02 0a 3f 91 34 2a be 07 7d 17 be 9f 07 14 3f
       0.53909725 -0.16621615 -0.14793788 0.5782413
0000a0 9c ff 14 bf 90 5d 69 be c2 30 22 be d4 48 53 bf
       -0.5820253 -0.22789598 -0.15838912 -0.82533
0000b0 e5 f5 ce be 39 11 1d 3e f1 1a cb be a4 24 bf 3d
       -0.40421978 0.15338601 -0.39668992 0.093331605
0000c0 d9 5a 33 3f b1 3a 29 bf 76 93 45 be 52 e7 a3 be
       0.700605 -0.6610518 -0.19294533 -0.3201242
0000d0 43 45 b6 be 22 61 19 3d d8 41 30 3d 96 93 d2 bd
       -0.35599717 0.03744615 0.043031543 -0.10282056
0000e0 f8 21 de bd c5 98 e4 3e 15 9d 05 3e 35 bf 13 bf
       -0.10846323 0.44647804 0.13048203 -0.57713634
0000f0 23 6b 57 be 20 75 a3 3e 4f 4d 60 bd ad 96 fb 3d
       -0.21036963 0.31925297 -0.054761227 0.122845985
000100 4a e0 73 3d 2f 6c 82 3e 0d 2f ff be 8e a9 00 3e
       0.05954007 0.25473163 -0.49840584 0.1256468
000110 b0 cb 3a be 47 7f 74 bc dc bc af be 75 02 90 3c
       -0.18241763 -0.014922923 -0.34323776 0.017579297
000120 b9 cc b8 3e 37 1b 22 bf d8 37 ca 3e 9a 69 eb 3e
       0.3609369 -0.63322777 0.3949573 0.45979005
000130 37 e7 4e 3e b6 00 56 3d c6 aa 49 3e c5 51 76 3e
       0.20205389 0.05224677 0.19694051 0.2405463
000140 43 bd 0f 3e 8d 65 c6 be d2 8f f1 bd 9f a2 42 3d
       0.14037041 -0.38749352 -0.1179501 0.04751837
000150 d0 12 5a bf c5 fa e1 3e e0 d7 bb bc 00 08 b5 3e
       -0.85184956 0.44136634 -0.022930086 0.35357666
000160 78 7b c5 bd 0c 6e 06 3e f9 1a cf be cd 88 cc 3d
       -0.096426904 0.13127917 -0.40450266 0.0998703
000170 bb a5 3b bd 7d a7 c3 3d d5 47 1f bf 01 57 72 3e
       -0.04581235 0.0955343 -0.6221898 0.23666002
000180 19 67 72 bc 3a 32 58 be bc eb 67 bd 4c d3 cc 3e
       -0.014795088 -0.2111291 -0.0566213 0.40004957
000190 85 28 fa be 8c 38 cb be 3c 63 38 bf a0 2d b8 3d
       -0.4885904 -0.3969158 -0.7202642 0.08993077
0001a0 5f 23 9f 3e 4a 84 d7 3e 93 72 22 3d e4 be 29 3e
       0.31081674 0.42093116 0.039660048 0.16576725
0001b0 31 05 6d be 28 d5 1c bf 23 b9 78 3e c0 d9 98 bc
       -0.23146512 -0.6126275 0.24289374 -0.018658519
0001c0 e6 b5 71 be e7 9b a3 be a0 5a d4 be 04 c2 5f be
       -0.23604545 -0.31954882 -0.4147539 -0.21851355
0001d0 12 18 36 bf cd 56 db be c5 2a 88 3e d4 8e 03 be
       -0.7113048 -0.4283966 0.2659513 -0.12847453
0001e0 fb e6 99 3e fa b7 e9 bd ec b8 d0 3e ac f9 0b be
       0.30059037 -0.11412044 0.40766084 -0.13669461
0001f0 98 d7 da be 1f d6 ae 3d b8 3d a0 3d 18 ea 63 be
       -0.4274261 0.08536934 0.07824272 -0.22257268
000200 8d 18 bb be 9e 27 e5 3d bc 52 0b be 55 a1 6f be
       -0.36542168 0.11189197 -0.1360578 -0.23401387
000210 ef 45 37 3b 72 80 ac 3d 6c 5b 4c 3e 27 48 76 3e
       0.0027965268 0.084229365 0.1995675 0.24050961
000220 52 bd 4e be 4b c2 b1 be ae 5d c7 be 24 b9 a4 3d
       -0.20189407 -0.34718546 -0.3893866 0.08043125
000230 a8 f4 03 be 60 4f 9b bf f5 0f 5a bf b7 1d 7f be
       -0.12886298 -1.2133598 -0.851806 -0.24913679
000240 f8 95 f8 be 46 f5 eb 3d 8a b7 84 be a2 a7 04 bf
       -0.48551917 0.115213916 -0.2592128 -0.5181829
000250 3b eb f1 3d d9 14 34 be ec ee 0f 3d f4 d3 fc 3d
       0.11812445 -0.17586078 0.035139963 0.12345114
000260 15 e0 c1 be 9e 19 2e bf ed 02 90 3e 16 56 36 3e
       -0.37866274 -0.6800784 0.28127232 0.17806277
000270 f5 33 91 be 43 e3 1a bf 49 0a 8b bd be b3 91 be
       -0.28359953 -0.60503024 -0.06789071 -0.28457445
000280 0d e4 73 be 66 6c 81 bf 24 7f 4b bd 70 09 15 bf
       -0.23817463 -1.0111206 -0.049681798 -0.58217525
000290 19 a7 3a bd 62 48 23 ba df 09 43 3e 10 6a 96 be
       -0.045569513 -0.00062287424 0.19046734 -0.29377794
0002a0 8b f3 0c bf 60 9b 8e 3d 87 80 02 be a4 16 21 be
       -0.5505912 0.06963229 -0.12744342 -0.15731293
0002b0 98 5b 8a be 1d 7b 96 3d 78 fc 23 be 49 52 3c be
       -0.27023005 0.07347701 -0.16014278 -0.18390764
0002c0 d8 15 13 be 3a 96 bb bc 3f 9b 25 be 9b 04 1c be
       -0.14363801 -0.022898782 -0.16172503 -0.15236132
0002d0 87 f5 1d be d4 20 38 39 d8 b2 ae 3b 67 f4 37 be
       -0.15425692 0.00017559837 0.0053313784 -0.17964326
0002e0 95 ba 19 3d 96 d4 27 be b2 53 9f be 84 9e aa be
       0.037531454 -0.16389689 -0.31118542 -0.33324063
0002f0 43 98 a4 bd 83 00 14 3c b1 87 11 bf 2b db 89 3e
       -0.08036854 0.009033325 -0.56847674 0.26925024
000300 0d 38 92 bd 57 0c 6f 3e 08 7c 33 be 5b e3 8c bd
       -0.07139597 0.23344551 -0.17527783 -0.06879302
000310 ac 2a a7 3c 0f 88 2c be 09 46 76 be 43 b6 e2 3d
       0.02040609 -0.16848777 -0.24050154 0.1106992
000320 4e f9 8a bd 1d a4 ad 3e 3c 86 19 3f 9e fb 2c bf
       -0.06785832 0.3391427 0.5997045 -0.6757144
000330 5d 46 90 be 9c 05 38 be b4 a5 16 3e 33 2a c9 3e
       -0.28178683 -0.1797089 0.14711648 0.39290008
000340 8b 86 9b be 83 10 20 3d fa 24 42 be 33 82 5a be
       -0.30376086 0.039078247 -0.18959418 -0.2133873
000350 4b 17 4b bd f3 76 fb bd e0 ba 73 be 5d c2 2d 3d
       -0.04958276 -0.12278547 -0.23801756 0.042421687
000360 b4 ee 86 be 9f 5d 36 3d 07 40 c5 3d 6e 72 4e 3e
       -0.2635399 0.044522878 0.09631353 0.20160839
000370 13 0b d4 bd 6a 12 f2 ba 45 2d 0a 3e d2 e5 59 bd
       -0.10353675 -0.0018468623 0.13493831 -0.05319769
000380 29 a7 bb be 58 7a f5 3c be 33 3b bf 94 46 29 bf
       -0.3665097 0.029965565 -0.7312583 -0.6612332
000390 4b 07 a2 bf e8 45 43 3e 39 05 b9 be 34 bb 23 bf
       -1.2658476 0.19069636 -0.36136797 -0.63957524
0003a0 56 4e f9 3d 46 c0 72 be ac de 5d 3e 4f 43 55 bd
       0.121731445 -0.23706159 0.21666974 -0.052066144
0003b0 d7 93 de 3d dc d1 12 bf eb ee 17 3f c9 4f d4 3d
       0.10868042 -0.5735147 0.59348935 0.1036678
0003c0 f4 a6 c5 3e 68 12 3c 3e 8d 41 0e 3e 2c a3 5c be
       0.38603938 0.18366396 0.13892193 -0.2154662
0003d0 dd 41 36 3f 1f 16 97 be 0b e5 4c 3e 48 06 09 3d
       0.7119425 -0.29509065 0.20009248 0.033453256
0003e0 6d f2 d0 be b0 41 99 bc e6 d9 07 be 9c 9c e5 3d
       -0.40809956 -0.01870808 -0.13266715 0.112115115
0003f0 a1 46 14 ba 65 08 7a 3e 48 e2 93 bd b7 c0 31 3e
       -0.00056562765 0.24417265 -0.07220894 0.17358671

conv3.bias f4 [32]
000000 5c 65 23 3c 62 da af bd 13 c6 95 3e d1 2c 06 3e
       0.009972896 -0.08586575 0.2925268 0.13103034
000010 3d ae 09 3e 43 09 93 3d 16 ec 2a 3f 7a a2 0a 3f
       0.13445373 0.07179501 0.6676649 0.5415417
000020 15 1f d0 3e 57 9e 69 3d 4b e0 15 3f ef ef 1b 3e
       0.40648714 0.05703577 0.5854537 0.15228246
000030 d9 43 db 3d 15 70 6c bd 32 30 e7 3d f0 0e df 3d
       0.107063 -0.057724077 0.112884894 0.10891521
000040 6b a0 a3 ba 56 df 4b bf f7 b2 01 3f ff f2 e7 be
       -0.0012483721 -0.7963766 0.50663704 -0.4530258
000050 10 86 e4 3e c8 12 cb 3e 87 de a3 bf 44 71 78 be
       0.44633532 0.39662766 -1.2802285 -0.24261957
000060 2e 03 4a be 94 96 ca bd 2f a3 9e be 0a 93 21 3f
       -0.19727775 -0.09892002 -0.30983874 0.6311499
000070 07 ce 62 3e 51 80 4e 3d 36 14 d2 3e c9 a4 84 3d
       0.22148906 0.05041534 0.41031045 0.06476743

mlp1.weight f4 [1, 32]
000000 a1 56 80 3d a5 a1 a7 3c bd 7c cd bc 95 28 a3 3c
       0.06266523 0.02046282 -0.025083894 0.019916812
000010 02 85 94 bd d2 02 ae 3c 19 59 27 bd 43 b8 48 bd
       -0.07251932 0.02124158 -0.040856455 -0.04900385
000020 86 ef ad bd 8b b0 12 bd d4 33 72 bd 8f 9b 16 3d
       -0.08492951 -0.035812896 -0.05913146 0.036769446
000030 fe a6 35 3d db 4e 17 3e 1e 2e db 3d af 97 14 bd
       0.04434871 0.14776175 0.107021555 -0.03627747
000040 43 0c 12 bd 3e cb c6 bc 33 4f 77 bd c9 a6 3d bd
       -0.035656225 -0.024266835 -0.060378265 -0.046301637
000050 66 2f 3f bd 25 ee 0c bd be b5 55 be 70 72 11 bd
       -0.046676062 -0.0344068 -0.2087011 -0.035509527
000060 d8 37 5d 3d 03 14 3c 3d 02 45 b9 3c b8 8c 9c bd
       0.054008335 0.045917522 0.022615913 -0.076440275
000070 ff 51 38 3d 29 f4 cb 3c da af 0a bd f9 5d 4e 3d
       0.045000073 0.024896698 -0.03385911 0.050382588
