saves/cnn_arch_2.pth (torch, 640034 bytes, 10 tensors)

palyer.weight f4 [2, 32]
000000 b8 23 11 3f bd 8f 0d bf 94 d4 6c 3d 8f 70 6a 3e
       0.5669513 -0.5529745 0.057819918 0.228945
000010 97 25 ed 3e 27 24 a3 3e d9 3a 82 3e c6 e0 98 3f
       0.4631774 0.3186352 0.25435522 1.1943595
000020 12 f0 a2 3d 66 94 3c bf 6d a7 e4 3e 08 62 f0 3d
       0.07955946 -0.7366394 0.44658986 0.11737448
000030 a6 e4 1b 3f 06 22 73 3e 15 21 02 be d6 ff 20 3f
       0.60895765 0.23743448 -0.12707932 0.62890375
000040 7a 6e b7 3e 92 6e 8d bd a3 8d 09 bd c0 41 21 3f
       0.35826474 -0.06905855 -0.03358234 0.6299095
000050 a2 bd 22 3e c4 78 3b be 89 ce 3f bf d7 cc 38 3e
       0.15892652 -0.18307787 -0.7492452 0.1804689
000060 fd ff 69 3f 79 8f 61 bf 67 23 9e be d6 5d 03 bf
       0.9140623 -0.88109547 -0.30886385 -0.5131506
000070 f2 f8 8a be f3 52 c4 3e 75 e9 2c 3f 3c b4 e0 3e
       -0.27143055 0.38344535 0.6754373 0.43887508
000080 a6 2b 11 3f 7e 03 1d be 96 a1 76 3d f5 98 0b be
       0.5670723 -0.15333363 0.060212694 -0.13632567
000090 39 8f ef 3e 14 44 a1 3e 27 0d 9d 3e 96 1d 69 3f
       0.46788958 0.31497252 0.30674097 0.9106077
0000a0 f1 13 ae 3d cf 38 3d bf 08 c3 e1 3e f9 43 e5 3d
       0.08499897 -0.7391481 0.4409411 0.111946054
0000b0 9c 85 1b 3f 16 af 6e 3e af 3b 01 be 64 d8 1e 3f
       0.60750747 0.23308977 -0.12620424 0.62048936
0000c0 4e 6b 4f 3e c2 f2 a1 bd fe 1d 15 bd d6 6b 23 3f
       0.20255777 -0.079076305 -0.036405556 0.6383642
0000d0 2e a5 cb bd a5 1a 42 be 5a eb 64 bf 5f 97 b6 3c
       -0.09943615 -0.18955477 -0.8942162 0.022288976
0000e0 40 fa 7e 3f b9 5f 60 bf 35 1f b6 be ff 74 05 bf
       0.996006 -0.8764606 -0.35570684 -0.52131647
0000f0 4c f3 01 bf 68 1b bd 3e 36 ff 2e 3f 77 7f dc 3e
       -0.50761867 0.36934972 0.6835817 0.43065998

grid.weight f4 [3, 32]
000000 65 54 13 bf d6 26 ee 3c b7 55 43 bd 83 44 ed 3e
       -0.5755065 0.029071253 -0.047689166 0.46341333
000010 dd 24 e7 be 68 60 a3 be 05 d9 ac be 78 d8 54 bf
       -0.45145312 -0.3190949 -0.33759323 -0.83142805
000020 82 81 ae bd 05 59 3d 3f 98 28 74 be c7 37 ee bd
       -0.085207954 0.7396396 -0.2384361 -0.116317324
000030 c7 46 1b bf 37 0a 6b be a1 75 02 3e 9f ec 1c bf
       -0.6065487 -0.22953115 0.12740184 -0.61298555
000040 a0 56 8e bd 76 62 82 3d b7 b1 07 3d 85 e8 1f bf
       -0.06950116 0.06366436 0.033128466 -0.6246417
000050 5e a9 b3 be 51 a8 32 3e cb 32 58 3f 2e ae 63 be
       -0.35090154 0.1744702 0.84452504 -0.22234413
000060 8b ab 50 bf 58 36 61 3f 75 a2 15 3f 3d 69 02 3f
       -0.81511754 0.87973547 0.58451015 0.5094183
000070 c8 c5 e8 bc 9b 71 c1 be 41 d6 2e bf 67 65 d9 be
       -0.028414622 -0.37781987 -0.68295676 -0.42460176
000080 58 c4 0b bf 15 5c e8 3e c8 64 7d bd ed 76 6c 3e
       -0.5459647 0.45382753 -0.06186369 0.23092242
000090 98 f9 e9 be 68 d2 a3 be ba 4d 17 be e4 da 99 bf
       -0.45698237 -0.31996465 -0.14775744 -1.2019925
0000a0 f2 17 93 bd 02 53 3e 3f 2b 9b 15 bf b2 36 df bd
       -0.071823016 0.7434541 -0.5843989 -0.10899104
0000b0 30 87 1d bf 22 87 73 be 85 b6 01 3e 9c 60 1e bf
       -0.61534405 -0.23782018 0.12667282 -0.61866164
0000c0 70 65 3d bd ed 01 93 3d 89 79 bb 3c 15 11 22 bf
       -0.046239316 0.07178102 0.0228851 -0.63307315
0000d0 e3 d2 46 be fb ab 40 3e 4c 8f 7a 3f d4 88 22 be
       -0.19416384 0.18815605 0.97874904 -0.15872508
0000e0 d9 59 48 bf 3f b2 61 3f b0 0a 5a 3e d9 ec 0a 3f
       -0.78262097 0.88162607 0.2129314 0.5426765
0000f0 82 9c 81 3f 32 de bc be 13 da 2e bf 57 14 e1 be
       1.0125887 -0.36888272 -0.68301505 -0.4396083
000100 1d 0f 13 bf 6c 9f 36 3f e7 4e 78 bd bc eb 6e bd
       -0.57444936 0.7133701 -0.060622122 -0.058330283
000110 1e cc f4 be bf c7 a6 be c2 24 2f be 6d 92 68 bf
       -0.4781198 -0.3257427 -0.17103866 -0.9084843
000120 f3 74 ba bd 7d e0 3f 3f d2 69 86 be ae c5 ec bd
       -0.091043375 0.74951917 -0.2625261 -0.11561142
000130 22 c0 17 bf fd 11 79 be 23 d0 0d 3e a0 55 26 bf
       -0.59277546 -0.24323268 0.13848929 -0.64974403
000140 ec 05 03 bf 49 67 b0 3d 48 ff 0c 3d a4 45 26 bf
       -0.5118091 0.0861345 0.034423143 -0.64950013
000150 0e a1 bb bd 0c 9d 51 3e 49 88 09 be b9 e7 ce bd
       -0.09161578 0.20470065 -0.13430895 -0.10102791
000160 e1 b5 81 bf 25 f7 5d 3f 55 1a 91 3e 52 81 04 3f
       -1.013363 0.8670524 0.28340402 0.5175983
000170 a0 e5 48 3f a9 83 ba be 1a 0f 31 bf 45 27 e2 be
       0.7847538 -0.36428574 -0.6916367 -0.44170585

conv1.weight f4 [32, 32, 3, 3]
000000 cc d9 e0 bd da 11 2a 3d 3e 0c a5 3d df 6c 47 be
       -0.109790415 0.04152093 0.08058976 -0.19475125
000010 37 4e d6 3d 2d 53 5a bd f1 bd 87 3d 89 cc f6 bb
       0.10464137 -0.05330198 0.06628025 -0.0075317067
000020 23 b8 06 3e b8 3c ad bd 48 fd 4a 3e a1 f6 de be
       0.1315618 -0.08458847 0.19823182 -0.43547538
000030 6d 5b 6a bd d8 79 99 3e 0b 62 23 be ad 76 e5 3a
       -0.057216097 0.29975772 -0.15955369 0.0017506682
000040 ea de e5 be 91 ab 90 bd da aa 5e bd 7a 08 d6 3c
       -0.44896632 -0.07063974 -0.054362155 0.026127089
000050 71 02 22 3e 08 37 d9 bd 7d fe 10 3d e4 f5 a7 be
       0.15821244 -0.106061995 0.03539895 -0.32804787
000060 1e fc e7 3d 21 a6 29 3e 2e 82 c4 3d 19 1e 2f 3d
       0.113273844 0.1656728 0.09595142 0.042753313
000070 45 bb 3e be 38 ac 19 3e 0b 2e 9e bd dc c7 fd be
       -0.18626125 0.15007102 -0.07723626 -0.49566543
000080 42 2c ed bd a1 2b 29 bc 0a 82 0a 3e 29 64 db 3c
       -0.11580707 -0.010325343 0.13526168 0.026781159
000090 58 da 54 3e 46 90 04 be c4 56 3c 3e 8d 0c eb bd
       0.20786417 -0.12945661 0.18392473 -0.11477003
0000a0 e7 ad ff 3d 2d 16 45 bc 5d f2 61 bd 74 87 39 3d
       0.12484341 -0.012029213 -0.055162776 0.045295194
0000b0 1d 59 b6 bd 83 d2 e6 3d 40 37 89 bd 21 75 4c be
       -0.08903716 0.11270621 -0.06699991 -0.19966556
0000c0 6e c9 48 3e be b4 d1 3d 7a 11 19 3e 25 f1 f7 3b
       0.1960809 0.10239552 0.14948073 0.0075665885
0000d0 41 91 a8 be 1c a9 31 3e 2b 31 63 bd 10 a5 22 3e
       -0.3292332 0.17349666 -0.055466812 0.15883279
0000e0 0d 81 ab be 93 6e 56 be 8a 13 9a 3c 18 57 44 be
       -0.33496895 -0.20940618 0.018808145 -0.19173849
0000f0 99 3c 0c bd 55 c0 e9 be 29 1b 12 3d 79 74 da 3d
       -0.034237478 -0.4565455 0.035670433 0.10666747
000100 99 fb 4e be 15 3f 02 3e e1 91 94 3d 00 6a 10 3e
       -0.20213164 0.12719376 0.07254387 0.14102936
000110 9e be 49 be 71 56 a5 bd b5 16 cb 3d 04 31 10 3c
       -0.19701621 -0.08073128 0.099164404 0.008800749
000120 a7 e5 ca 3c f1 4c ab 3c 18 9d 9c bc 29 91 3c 3d
       0.02476771 0.020910712 -0.019117877 0.046036873
000130 df e3 93 3d 28 0b 9a bc ec 62 91 bd 48 05 61 bc
       0.07221197 -0.018804148 -0.07098946 -0.013734169
000140 da bc 34 be 2b f0 dd bc 0c 2f 7a 3d 5a ee 26 be
       -0.17650166 -0.02709206 0.061080024 -0.16301861
000150 d4 b3 9e bb 28 28 d7 3d 87 84 c2 3c 88 ce 1d be
       -0.0048432145 0.10505706 0.023744835 -0.15410817
000160 af d7 18 3e 66 9b b5 3c 77 6b 5a 3d ea 7a 3b bd
       0.14926027 0.022168826 0.053325143 -0.045771517
000170 01 86 77 3d 44 a2 37 bd d0 25 e1 3e 06 11 a3 be
       0.06043053 -0.044832483 0.4397416 -0.31848925
000180 70 51 3a be db 01 2e 3e e7 1a 58 be 8b 84 9a 3d
       -0.18195128 0.16992895 -0.21104012 0.07544812
000190 ab 10 e8 3d 12 d3 88 3d 08 10 03 bd 79 25 e3 3d
       0.11331304 0.066808835 -0.03199771 0.11091132
0001a0 cc d8 23 bd 18 05 c2 bd b5 68 c8 3d 2d 02 95 bd
       -0.040001675 -0.09473628 0.09785596 -0.072758056
0001b0 3c 68 4f bd d5 a7 2a bd c1 f2 55 bd 7f 96 cf bd
       -0.050636515 -0.041663963 -0.05223346 -0.10136127
0001c0 17 e8 a2 3d a0 f7 cd bd 61 9b 40 3e b5 00 5e bd
       0.07954424 -0.10056996 0.18809272 -0.054199893
0001d0 39 d7 82 3d ed 60 a3 bc ee 51 e8 bd 64 eb 18 bd
       0.06388707 -0.019943679 -0.11343752 -0.03733386
0001e0 2d d1 e9 3d 2a 9d bd 3d 12 38 93 3e bf eb e1 bd
       0.1141685 0.09258492 0.28753716 -0.11031293
0001f0 16 6b 8c be 18 18 25 bd a5 fc d5 bb 3d 4c b2 bd
       -0.2742545 -0.04030618 -0.0065303617 -0.087059475
000200 15 9f 69 3e f1 f4 b3 bd 3a 8b 8e 3d f3 b6 8b be
       0.22814591 -0.08786953 0.06960149 -0.27288017
000210 2c ad b0 bd a7 05 9b 3d 8e 47 30 3e 25 eb ad bd
       -0.0862678 0.075694375 0.17214796 -0.08492116
000220 93 58 e4 bd 99 e9 ea 3c 6e 9c 25 bd 58 07 4e bc
       -0.11149707 0.028675841 -0.040432386 -0.012574993
000230 ba 74 4f 3e b9 01 88 bd de 9e db bc 82 1c f2 bd
       0.20259371 -0.066409536 -0.026809152 -0.11821844
000240 2d f5 bc 3d 50 09 64 bd b4 3c 06 3e 7e 0c 5f bd
       0.09226451 -0.055672944 0.13109094 -0.054455273
000250 d0 68 24 bf 99 a1 dd 3d a7 e2 2c bd c8 10 52 3e
       -0.6422243 0.10821838 -0.04220834 0.20514214
000260 1c 5d e5 3d af 19 72 3d 69 6c 9f bd 02 d4 ac 3d
       0.111994 0.059106525 -0.077843495 0.08438875
000270 b2 e0 45 3d 05 01 05 bd f9 fc e3 bd f0 fd 7f be
       0.04830999 -0.032471675 -0.11132235 -0.24999213
000280 be 0a a5 3c 6c 51 14 bd c6 aa 0f 3e c9 02 31 bd
       0.020146724 -0.036210462 0.14029989 -0.043215547
000290 94 ee c5 bd 8e b8 3d 3e a4 21 3c bd 8e ff 95 3b
       -0.09664646 0.18527433 -0.04593052 0.0045775836
0002a0 a3 5b 89 3d aa 7f d8 bd 50 82 65 bd 07 7f e9 3d
       0.067069314 -0.10571225 -0.05603248 0.11401182
0002b0 2a 9d b1 3c c9 bd b6 bc ce 1f aa 3d 49 b2 22 be
       0.021681387 -0.022307293 0.083068475 -0.15888323
0002c0 89 fd 91 3e 21 bd ba 3c 37 1a 90 3e fc 36 26 be
       0.28513744 0.022795262 0.28145 -0.16231912
0002d0 24 b7 0b 3d 32 70 95 bc 18 08 90 bd 7f bf 42 3e
       0.034110203 -0.018241975 -0.07032794 0.19018362
0002e0 c1 a1 02 3e 7b 00 03 3e 51 75 1c 3e 3e 81 69 be
       0.12757017 0.12793152 0.15279128 -0.22803208
0002f0 07 60 40 3e ec 73 8f be 23 70 8b 3c 69 75 2c 3e
       0.18786632 -0.2801813 0.017021244 0.16841663
000300 77 22 e5 bd 83 ee 1e 3e e4 5a 99 3d dd f4 c2 3d
       -0.11188214 0.15520673 0.07488039 0.0951936
000310 45 28 39 be b4 1c 20 bd 60 6b 94 3c 5e a7 08 be
       -0.18081768 -0.039089873 0.018117607 -0.13345096
000320 7a 44 4a 3e 30 aa da 3d b4 b6 f9 be 96 67 84 3e
       0.19752684 0.10676992 -0.48772204 0.2586028
000330 2b bd 52 3d ea a1 8a 3e 69 2e 47 3e c5 f3 92 3c
       0.051449936 0.27076656 0.19451298 0.017938504
000340 d2 9f 61 bd 30 1b e1 3b ec 1a 82 3d fe ec 91 bc
       -0.055084057 0.006869696 0.06352791 -0.017813202
000350 f9 1e 8e 3d 70 eb e6 3d ed b6 89 be ec f3 4d 3e
       0.06939501 0.11275375 -0.26897374 0.2011258
000360 3b ac d5 3d c1 19 22 3b 85 2c ad 3c d5 ca 01 be
       0.10433241 0.0024734589 0.021139393 -0.1267503
000370 6e 69 12 bf 1d 5c f9 bc 45 2e c1 bd fc 28 f7 3d
       -0.5719212 -0.03043943 -0.09432653 0.12068364
000380 35 9e 7a bd 60 19 69 3d 71 2c 03 3d 0a 72 a4 3d
       -0.061186034 0.056908965 0.032024805 0.08029564
000390 81 68 25 3d 37 96 c2 3d 88 b9 c3 3d da 57 38 be
       0.040382866 0.095013075 0.09556872 -0.18002263
0003a0 18 ca 0c 3d 1c b8 02 be 14 55 0f 3e ee 51 30 be
       0.03437242 -0.12765545 0.13997298 -0.17218754
0003b0 cd d0 b8 3e da 09 8b 3d 35 31 5a 3d 1b 31 de bb
       0.36096802 0.067889884 0.053269584 -0.006780756
0003c0 a7 57 b7 bd cc 40 d0 3e aa af 2d be fe dd c8 3d
       -0.08952265 0.40674436 -0.16961542 0.09807967
0003d0 01 b7 83 bb d4 02 19 3e 39 b4 98 bd 5d e9 98 3d
       -0.0040196185 0.14942485 -0.0745625 0.074663855
0003e0 35 12 72 bd f9 3c d3 3d c0 72 4e 3e 8b 1e 92 be
       -0.059099395 0.10314364 0.20160961 -0.28538927
0003f0 5f 0f bb bd e2 42 9d 3c 86 03 b0 be 2a cb 56 be
       -0.09133791 0.019196931 -0.34377688 -0.20975938

conv1.bias f4 [32]
000000 29 0b 67 be 68 bb 71 bd c4 53 52 3d 8f d1 32 3d
       -0.22562851 -0.059016615 0.051349416 0.043656882
000010 78 eb 0a bd f1 b9 c3 bc c4 2f b9 3d d5 34 e9 bc
       -0.033915967 -0.023892375 0.09042314 -0.028467575
000020 57 45 17 be e8 4b 62 be a6 a7 50 bd 63 ae 90 be
       -0.14772545 -0.22099268 -0.050941132 -0.28258047
000030 17 98 62 be f9 bc d8 bd 0f 7e 5c be 58 54 0f be
       -0.2212833 -0.10582919 -0.21532463 -0.13997018
000040 0d 3b 5f be 79 43 01 bf cf 50 84 bd fa 1f cf be
       -0.2179987 -0.5049358 -0.064607255 -0.40454084
000050 84 e4 34 be 3c 13 e5 bd d7 3f b4 3c 01 2e f3 bd
       -0.17665297 -0.11185309 0.022003097 -0.11874009
000060 c9 3d a1 3c 6d 80 22 bd 92 e5 a6 bc ea dd 5a be
       0.019682782 -0.039673258 -0.02037314 -0.21373716
000070 d5 64 bf be 72 a5 0f be be f1 29 bd 05 e3 49 be
       -0.37381616 -0.14027956 -0.04149031 -0.19715507

conv2.weight f4 [32, 32, 3, 3]
000000 83 98 df 3c 9b 06 89 3e d1 cf 4e bd 67 ae 42 3e
       0.027294403 0.26762852 -0.050491158 0.19011842
000010 fa b3 fd 3e cb cf 39 bd f3 0c 1e 3b 6d a2 69 be
       0.49551374 -0.045364182 0.0024116605 -0.22815867
000020 52 ef 5d 3e 24 06 2a bd ba c3 5d 3c 97 6f 49 be
       0.21673325 -0.041509762 0.013535434 -0.19671474
000030 5b 36 77 3d bc 27 02 3e 94 37 82 be 3c 84 82 be
       0.06035457 0.1271047 -0.25433028 -0.25491512
000040 92 46 49 3e 7c c4 79 bd 19 ef da bd 83 78 85 bd
       0.19655827 -0.060978398 -0.106901355 -0.065171264
000050 64 87 8e be f4 23 b5 be e5 00 d0 3e 37 84 be bd
       -0.2783767 -0.35378993 0.40625682 -0.09302562
000060 d2 05 50 3e 7d 67 cd be cd 74 47 be b5 3d bb bd
       0.2031472 -0.40118018 -0.1947815 -0.09142629
000070 fa 09 38 3c 6d cf 2e be 09 8b 16 bd 91 26 b6 3d
       0.011232847 -0.17071314 -0.036753688 0.08894075
000080 f2 9d aa 3d 48 a2 b8 3c 39 2f ae 3e db 10 b7 3d
       0.08330907 0.02253832 0.34020403 0.08938762
000090 ff 3f 85 bd bc 96 74 bd 6b b0 01 be 80 db b8 be
       -0.06506347 -0.059714064 -0.12664954 -0.36104965
0000a0 e2 de 27 be 85 ad d9 bd c5 39 84 3c 0b 6b f3 bc
       -0.16393617 -0.10628799 0.016140828 -0.029714128
0000b0 9a 1f a7 be 3b ab ac 3d 84 f8 42 3e 9d 98 43 3e
       -0.32641298 0.08431097 0.19040114 0.19101186
0000c0 d3 cf a4 bd a1 cc 15 3f 5a d2 b9 be a0 aa 03 bf
       -0.08047452 0.58515364 -0.36293298 -0.5143223
0000d0 47 18 4f 3e 12 ea a5 be f6 ec dc 3d 25 9d 90 bd
       0.20224105 -0.32405144 0.10787384 -0.07061223
0000e0 a2 0c 9a bc 21 30 ca 3e 09 b5 a7 3e 49 23 a2 3d
       -0.018804852 0.39489844 0.32755306 0.07916886
0000f0 32 23 e6 3d cd ba f9 3c 89 38 f6 bd 09 63 38 be
       0.11237182 0.030484581 -0.12022502 -0.18006529
000100 de 2d b0 3d 72 af c3 be 7b d6 71 3e 4f 58 60 3e
       0.086024985 -0.38219792 0.23616974 0.21908687
000110 d7 e7 a9 3c 92 f3 c7 bd 2b cf 38 3e b7 93 0d bf
       0.020740433 -0.09763254 0.18047778 -0.5530352
000120 67 db d9 bd a8 da 9f 3d 26 e0 c8 be 52 ea 32 3d
       -0.10637551 0.07805377 -0.39233512 0.043680497
000130 20 c5 4e bd b3 78 82 be 45 34 1e 3d 85 66 9c bd
       -0.05048096 -0.2548271 0.038624067 -0.076367415
000140 7c 14 5f bd d5 88 17 bf 06 bf b5 3d 23 1d ee bb
       -0.054462895 -0.59193164 0.088743255 -0.007266657
000150 b1 25 17 3c d3 a5 db 3d 70 c3 f2 bc e5 d2 03 3e
       0.009225295 0.10724988 -0.029634207 0.12873419
000160 a0 18 d5 bd b8 c0 cd be 36 ea e6 bd a9 69 80 be
       -0.104050875 -0.40186095 -0.11275141 -0.25080612
000170 98 23 f7 3b d5 2d 85 bd 93 c4 16 be f3 bb 14 bf
       0.007542085 -0.065028824 -0.14723425 -0.5809929
000180 90 94 cd be ee 49 5a 3e 60 39 b4 3d 59 57 1d bd
       -0.40152407 0.21317264 0.08800006 -0.03841338
000190 99 7b e7 3d a0 5e 9b 3d b2 35 14 be b5 76 b7 be
       0.11302871 0.07586408 -0.14473608 -0.35832754
0001a0 b3 9a 2b be d9 11 f7 bd 8b db 57 be a0 62 b0 bd
       -0.16758232 -0.12063951 -0.21079843 -0.08612561
0001b0 8a db b1 be c6 c8 b7 3d 3b cc f3 3d 2c 92 aa 3d
       -0.34737808 0.08973841 0.11904188 0.08328661
0001c0 03 07 a4 bd f8 b1 91 bd e1 f8 cd bd b1 30 2c 3d
       -0.0800915 -0.07114023 -0.100572355 0.042038623
0001d0 9b 57 8d 3e f5 b5 3b 3c 98 21 57 3e e2 ed 48 be
       0.276059 0.011456956 0.21008909 -0.19621995
0001e0 1e d9 94 3c 45 1a 07 3f 9b 0e cd 3b b7 51 36 be
       0.018169936 0.5277446 0.0062578446 -0.17804609
0001f0 0c e2 c3 be da 12 00 be 1d b3 02 bf ec 73 03 bf
       -0.38258398 -0.12507191 -0.51054555 -0.5134876
000200 59 dd eb 3e 1b 8d 71 bb 33 d5 00 bf 9d 84 85 3e
       0.46067312 -0.0036857787 -0.50325316 0.26077738
000210 1f 95 27 bd 69 d6 83 bd 91 af b9 3e ec ed 32 bd
       -0.040913697 -0.0643738 0.3626676 -0.04368393
000220 d1 e1 d6 3e 49 42 f1 bd a6 9e cb bd e0 ee 54 be
       0.4196916 -0.11780221 -0.09942369 -0.20794249
000230 c8 85 57 bd 37 4f c4 be f4 d7 26 bf ec 25 20 3d
       -0.052617818 -0.38341686 -0.6517327 0.039098665
000240 d9 f3 10 3e 1d 6a 4c 3e 53 64 1c 3d f0 a2 b9 3d
       0.1415552 0.19962354 0.038181614 0.09064281
000250 03 31 58 bd a2 d2 e0 bb 6d 67 2b be 5a 72 84 be
       -0.052781116 -0.006861047 -0.16738673 -0.25868493
000260 37 28 89 3e 35 16 58 bb 27 3e 12 3b 3e 9b b7 bd
       0.26788494 -0.003297222 0.0022314878 -0.08965157
000270 54 5e ea 3d 04 f4 d0 3d f5 6c f7 39 74 d8 8c 3e
       0.11443773 0.10202792 0.0004719269 0.2750889
000280 65 95 ac 3d 1b 42 39 3e 66 99 d2 bd bc 29 32 be
       0.08426932 0.18091623 -0.10283165 -0.17398733
000290 90 f0 12 3d 07 0f 1a bf b2 4d 05 3e df e9 29 3e
       0.03587395 -0.6017918 0.1301792 0.16593121
0002a0 4f 21 b3 be f0 33 8c be fc be 4b be 29 34 8c 3d
       -0.3498635 -0.27383375 -0.19897074 0.06845886
0002b0 4d 56 e9 be 33 df 95 be 90 67 22 3c a7 29 25 bf
       -0.45573655 -0.2927185 0.009912387 -0.6451668
0002c0 4d cd 28 bf a8 ea 57 bf e3 01 22 3e 67 97 32 3d
       -0.65938264 -0.8434243 0.15821032 0.04360142
0002d0 19 0d 96 be 60 7c 10 3e c6 7e 78 bd c0 b1 16 bf
       -0.29306868 0.14109945 -0.060667776 -0.58864975
0002e0 f3 81 e6 be 80 3c 02 3e ff 6f f7 bd 06 b4 51 be
       -0.45021018 0.12718391 -0.120819084 -0.2047883
0002f0 56 cd a0 be 9f 6c 22 b9 4c 8b 53 bd e5 2b 09 bb
       -0.3140666 -0.00015489988 -0.051646516 -0.0020930704
000300 93 f3 78 bd f5 e8 f7 3b bf 23 3b 3d 5f b6 a0 bb
       -0.060779165 0.0075656124 0.045688387 -0.004904553
000310 32 3c 25 bd 3a 5a 16 3c 87 43 d0 bd d2 fa f2 3d
       -0.04034061 0.009176785 -0.1016913 0.118642464
000320 d2 24 1f 3e d0 f5 87 3e 66 8a 87 bc 67 b5 ee be
       0.1554139 0.26554728 -0.016545486 -0.46622774
000330 14 2e 46 be 1f d0 0b bf 1c e3 84 bc 47 0d df bc
       -0.19353515 -0.5461444 -0.016221575 -0.02722801
000340 43 c2 4b 3e 32 35 bd bc 22 84 93 be e2 1c 48 3e
       0.19898324 -0.023096655 -0.28811747 0.19542268
000350 c9 96 8a 3e d3 56 94 3e ce 54 19 bf a7 8a aa be
       0.27068165 0.28972492 -0.59895027 -0.33308908
000360 02 8a 69 bd f1 5a a3 3b 76 18 48 be 9c d2 16 bd
       -0.05701638 0.0049852063 -0.19540581 -0.036821947
000370 47 7b 79 3d 3c 84 19 be 4b b2 24 3d 4d d0 b3 bd
       0.060908582 -0.1499185 0.040209096 -0.087799646
000380 2b 14 b1 bc 0c 35 f8 3d a9 da a7 be 13 8c 75 be
       -0.021616062 0.12119493 -0.32784012 -0.23979215
000390 96 0e 29 3e 10 b0 d5 be 6c f8 8a bd 40 58 73 3e
       0.1650947 -0.41735888 -0.06785664 0.23764133
0003a0 cb 7e 55 be 43 3a 12 bb 7e 09 6c 3c d9 0b fc 3a
       -0.20849149 -0.0022312559 0.01440656 0.0019229605
0003b0 4d a0 81 3e d0 4e 58 bd e8 73 1e bc 63 59 d1 be
       0.25317612 -0.052809536 -0.009671189 -0.4088851
0003c0 1e e2 b4 bd c7 56 52 3d 7f 11 95 3e 27 1c 8d bd
       -0.08832191 0.05135229 0.2911491 -0.06890135
0003d0 ec 5e 92 3e 7a cf a6 3d a9 63 0a bd 44 b3 c0 3e
       0.28588045 0.08145042 -0.03378645 0.3763677
0003e0 03 87 ba 3e be d0 93 bd 64 2e 80 be 2b 5a 27 be
       0.3643113 -0.07217549 -0.25035393 -0.1634299
0003f0 99 d9 02 be 76 7a 71 3e e5 53 05 be 4a 57 52 3e
       -0.1277832 0.23581871 -0.13020284 0.2054111

conv2.bias f4 [32]
000000 87 81 2c be 32 f5 d1 be e0 02 b2 bd e7 02 39 be
       -0.16846286 -0.41007382 -0.086919546 -0.18067513
000010 66 46 97 be cc 0d 1e be 07 51 3b 3c 5c c7 84 bd
       -0.29545897 -0.1543495 0.011432893 -0.06483337
000020 b7 0f a5 3c c2 1e ba 3d b5 c7 1c 3e a3 a0 79 bd
       0.020149095 0.09087898 0.15310557 -0.06094421
000030 f1 8e 0d bd f1 63 80 bd 6c d5 93 be 93 0a 26 3e
       -0.034560148 -0.06269062 -0.28873765 0.16214971
000040 1e 80 6a be 37 89 cd be 5e 97 2b 3d af f6 e4 3b
       -0.22900435 -0.4014375 0.041892402 0.006987415
000050 71 44 ef 3d 53 9f 08 be 15 14 b3 be 58 06 74 3d
       0.11682976 -0.13342027 -0.3497626 0.059576362
000060 ec 9b 28 be bc 41 1e be bb c1 72 be 43 59 c4 be
       -0.1646573 -0.15454763 -0.23706715 -0.3834935
000070 82 e9 f3 bd 43 45 e6 bd d5 74 1d bd de e2 51 bd
       -0.119097725 -0.112436794 -0.038441498 -0.051241748

conv3.weight f4 [32, 32, 3, 3]
000000 86 06 61 3d 8a b0 c0 be 79 70 70 be cc cd c5 bd
       0.05493786 -0.3763469 -0.23480405 -0.09658393
000010 b3 44 b6 bd d2 60 19 bf e4 e8 07 bf f2 05 dc be
       -0.08899822 -0.5991336 -0.5308974 -0.42973286
000020 42 28 06 bf 79 3f be be 75 10 28 be 48 2b 7c 3d
       -0.5240518 -0.371578 -0.16412528 0.061564714
000030 a6 cb 9b 3d 20 5d 24 bf 3b 97 3f be 05 23 61 bd
       0.07607202 -0.642046 -0.18710034 -0.054965038
000040 28 51 03 be 05 22 55 bf d0 03 9c be d7 54 f7 3d
       -0.12823927 -0.83255035 -0.3047166 0.12076729
000050 4f 46 38 be 6f c2 85 3e d8 81 dd 3d 47 76 17 bd
       -0.1799557 0.26124904 0.10815781 -0.036978032
000060 47 7c d8 3c 85 b5 3f 3e df bf 22 be 13 0e 08 be
       0.026426448 0.18721588 -0.15893506 -0.13286619
000070 f6 6d 19 bf 5d ff 14 3e 7e 3f ba 3d 15 a8 9d 3e
       -0.5993341 0.14550538 0.090941414 0.307923
000080 a5 bf 56 3e 45 6d 59 bf 49 f9 78 3e 7e 52 89 be
       0.20971544 -0.8493236 0.24313845 -0.2682075
000090 6d 37 7b 3d b7 04 3d be 61 dc 22 be 6e 45 be be
       0.061332155 -0.1845883 -0.1590438 -0.37162346
0000a0 31 b0 90 3c fe 0e 25 bd bf 9b b3 3e 1d f2 c2 bb
       0.01766214 -0.0402975 0.35079762 -0.0059492723
0000b0 17 fa fc 3c 10 f4 0f bf a5 a2 2e be e7 04 63 bd
       0.03088097 -0.56231785 -0.17054231 -0.055424597
0000c0 86 70 20 3d 0f 19 24 be a5 cd 68 3e 26 d5 39 3d
       0.03916981 -0.16025184 0.22734697 0.04536929
0000d0 74 ea bd 3d db c0 68 3e b5 c8 bc 3d e4 8f e1 3c
       0.09273234 0.22729819 0.09217969 0.027534433
0000e0 09 a8 fb be da b2 a7 3d c5 c8 8f bc 67 fc 3a 3e
       -0.49151638 0.0818841 -0.017551789 0.18260346
0000f0 ca cc ce 3e 60 41 50 3d a6 06 36 be 13 e8 d0 3e
       0.40390617 0.050843596 -0.17775974 0.4080206
000100 cd 17 27 3e 11 ed 81 3e 32 bd 99 be 1d 61 c9 3e
       0.16317673 0.2537618 -0.30027157 0.39331904
000110 be 1a c4 3d ca e7 91 bc fa fe 16 be 4b b2 a3 bc
       0.09575413 -0.017810721 -0.14745703 -0.019982478
000120 cd db 9f 3d 34 7d 36 3e 68 2a 6a bf 36 c8 37 be
       0.078055955 0.17821199 -0.91470957 -0.17947468
000130 fd d8 2c be 36 1a e0 be 5e 78 8d be 68 0d 2a 3e
       -0.1687965 -0.43769997 -0.27630895 0.16606677
000140 f2 bd 67 3e 65 2b e7 3d 8d 2f 4d 3d 7b c7 64 bd
       0.22631052 0.11287574 0.050094176 -0.055854302
000150 6b ec f9 3e 43 27 f8 3d 10 34 a8 be 3c 3b 07 3d
       0.48813185 0.121168636 -0.3285222 0.033015475
000160 71 41 fa bd 4c 20 f8 3e a5 84 0d 3f 6d 03 7c bf
       -0.12219513 0.4846214 0.55280524 -0.9844273
000170 06 4f d8 3e 7f 52 cc bd 68 95 82 3c c1 10 ce 3e
       0.4224779 -0.099766724 0.015940383 0.40247157
000180 90 4c 04 3e ae cb 8a 3d f3 4b b2 3e c0 b0 0c 3f
       0.12919831 0.0677713 0.3482357 0.549572
000190 82 2f f7 be 91 c6 6e bf 13 34 a1 3d 73 c1 62 bd
       -0.48278433 -0.9327174 0.078712605 -0.05536027
0001a0 ec 46 c9 bd 42 72 25 bc 11 d7 49 be 1a b5 c5 3d
       -0.098279804 -0.010098042 -0.19710948 0.09653683
0001b0 12 18 08 be e9 3d 35 be 13 81 6d be 6d dd 2b be
       -0.13290432 -0.17699398 -0.23193769 -0.16783686
0001c0 d5 ad 38 3e 7f b2 5a bf 0f 46 76 3d 52 63 fa bd
       0.18035062 -0.85428613 0.060125407 -0.12225975
0001d0 08 f7 1c bf fa df 56 be c5 8d c2 bb 53 bf 0b 3d
       -0.6131444 -0.20983878 -0.0059373104 0.034118008
0001e0 cc 4f 15 bd 26 81 08 3f 48 5a 1a bf 4c 6d 08 bf
       -0.036453053 0.53322065 -0.6029401 -0.53291774
0001f0 b8 e9 69 3e 50 ad 92 3e 3f 7a 04 3e d1 6d 1a bf
       0.22843063 0.28647852 0.12937258 -0.60323817
000200 5b d8 2d bf dd 93 7c bd 15 cc 5e be 23 09 6d be
       -0.6790826 -0.06166445 -0.21757539 -0.23148017
000210 61 df a2 3e 05 11 93 3c df a8 8b 3e bc d9 40 bf
       0.3181105 0.017952451 0.27277276 -0.75332236
000220 ca 83 82 3e 09 1f c6 be 02 7b 93 3e ba 92 03 bd
       0.25491172 -0.38695553 0.28804785 -0.03212235
000230 0f 53 1a bf 49 a5 70 bd 3b 8c ab be a8 3f 1c bf
       -0.6028299 -0.05875138 -0.33505425 -0.6103463
000240 aa 4c 8f 3e de af a5 3e 69 42 e9 3e e2 ba f5 3e
       0.27988178 0.3236074 0.4555848 0.47994143
000250 ff 7d 2d be e0 e8 05 3d 8e 0e 37 3e 6b 0b 88 bd
       -0.16942595 0.03269279 0.17876646 -0.06642803
000260 38 60 55 bf 29 f3 0b bc 1f 9a dc b9 47 38 ad bd
       -0.83349943 -0.008541861 -0.000420765 -0.08458
000270 60 52 00 bf f6 2f 92 be ba f7 09 bf 66 1d c8 3d
       -0.50125694 -0.28552216 -0.53893626 0.09771232
000280 e2 64 4d bf 79 31 df be 66 f1 8c 3d 6f 98 19 3e
       -0.8023206 -0.43592432 0.068819806 0.14999555
000290 24 ff 03 3b 47 af 78 be 1c 87 5b be 98 a4 d9 bc
       0.002014109 -0.24285613 -0.21438259 -0.026567742
0002a0 5f f7 06 bf 13 62 90 be eb 77 7b be 6d a5 f6 3d
       -0.5272121 -0.28199825 -0.24557464 0.12043271
0002b0 25 3d 7c bd d5 fc 95 be 7a 24 5b be b7 bc a7 be
       -0.06158175 -0.29294458 -0.21400633 -0.32761165
0002c0 96 ef 9b bd 4a 58 d3 be c4 85 ed 3d 71 72 00 3f
       -0.07614057 -0.41278297 0.115977794 0.50174624
0002d0 dc 86 31 bf dd 47 8c be 71 16 da be 58 d4 9a bd
       -0.69346404 -0.27398577 -0.42595246 -0.075600326
0002e0 7f 83 2a bc 86 0f 9f bb 85 37 56 bd 1e 4d 36 be
       -0.010407328 -0.0048541455 -0.05229904 -0.17802855
0002f0 d5 c9 df 3c 7d a0 cd bc 90 d6 da 3d 5a 9d ed 3e
       0.02731792 -0.02510094 0.10685456 0.46409112
000300 25 16 3b 3d 3c 1f 0b bf 36 de 86 bc ad 18 00 3e
       0.045675416 -0.54344535 -0.01646338 0.12509413
000310 dc 82 a7 3e d3 43 5c be 21 78 05 3d d7 9a c7 be
       0.32717025 -0.21510248 0.032585267 -0.3898532
000320 07 af fa 3e 44 9a 6a 3f d1 53 db be 06 88 66 bd
       0.4896166 0.9164164 -0.42837384 -0.056282066
000330 63 ca a5 3a 9c 7d 12 bd 6f 06 47 3f 96 fd ba bd
       0.0012648817 -0.03576432 0.7774419 -0.09130399
000340 6c 73 56 be cd 6f dd 3d cb 76 cd 3e a9 a3 05 bf
       -0.20942467 0.1081234 0.40129694 -0.5220285
000350 5c 09 09 bf 6c 66 77 bd 23 49 99 3d a1 40 af be
       -0.53529906 -0.06040041 0.07484653 -0.34228995
000360 e2 fe a3 3d 26 d1 b4 be a3 ea 9e be ce 30 02 bf
       0.080075994 -0.35315818 -0.3103839 -0.5085572
000370 d5 18 b6 be cd ee 89 be f1 90 40 3c 31 a6 2f be
       -0.3556582 -0.26940003 0.011753307 -0.1715324
000380 7e c2 e1 bd b2 68 d7 3e e0 60 51 3d 82 22 8b 3d
       -0.110234246 0.42072064 0.051117778 0.06793691
000390 cc 19 30 bf 1c 5f c4 3e 2a 44 11 bf ef bc 3f bf
       -0.6878936 0.38353813 -0.56744635 -0.74897665
0003a0 f6 0a 96 3d 7a 59 93 3e a1 77 4e be 54 7b af 3d
       0.073263094 0.28779203 -0.20162822 0.08568445
0003b0 47 e9 60 bd e7 37 b7 be 05 a4 db 3d 97 d3 83 bd
       -0.05490997 -0.35784838 0.107246436 -0.06436842
0003c0 70 09 b0 3d 35 e9 d6 be 6c 99 51 bc b4 da bc be
       0.0859555 -0.41974798 -0.012792926 -0.36885607
0003d0 4d a0 92 3d 6a 5a 31 3e 09 84 8e bd 78 c4 ab bc
       0.07159481 0.17319646 -0.069587775 -0.020967707
0003e0 f9 18 0d be 7f f2 f7 be 1f 1d 93 be ff 35 2d bf
       -0.13779058 -0.48427197 -0.28733155 -0.67660517
0003f0 63 91 43 be 58 88 84 bd b4 10 0f bf d3 fb dc 3b
       -0.1909843 -0.06471318 -0.5588486 0.006743887

conv3.bias f4 [32]
000000 7e 1d 08 bb ac ba a7 bb db 3c a7 3c 66 f8 fe 3c
       -0.0020769532 -0.0051186886 0.02041476 0.031124305
000010 11 df a3 3a c4 1b 46 bd 2e 6f 71 3a e0 fe 13 3d
       0.0012502392 -0.048366323 0.00092099875 0.03613174
000020 4c 6d 9d bc 67 8f 07 bd 3c 36 00 bd 58 5b 26 be
       -0.019217156 -0.033095744 -0.031301722 -0.16245782
000030 8c b6 8e bd 6e 78 a8 3d c9 93 3e bd da 16 e7 3c
       -0.06968412 0.08226095 -0.046527658 0.028209139
000040 b0 1c b9 bd ab 76 99 3e 38 c4 a2 3c a0 39 11 3e
       -0.09038675 0.2997335 0.019868955 0.14182138
000050 08 56 82 3c 7c 15 ef 3b 4e d9 55 3c 9a f8 b0 bb
       0.015910164 0.0072962623 0.013052298 -0.0054007294
000060 ce ef fe 3c 78 b6 9e be f8 f7 43 3d dd 79 b2 bd
       0.031120207 -0.30998588 0.047843903 -0.0871465
000070 ae e4 cc bc 52 1b a1 bd b7 18 6f 3b ed 91 ec bc
       -0.025011387 -0.07866539 0.0036483237 -0.028878177

mlp1.weight f4 [64, 2048]
000000 5b 9d 3c c1 24 36 27 c0 1e 40 fc 3e 30 e4 a5 c0
       -11.788417 -2.6126795 0.49267668 -5.184105
000010 06 41 53 3f 93 cd 80 3f 22 7e 68 bf b6 21 61 c1
       0.8252109 1.0062736 -0.90817463 -14.07073
000020 94 2a 08 3f 3f 7e 51 be 74 eb 86 3c 9e 8c fa bc
       0.5318997 -0.20458315 0.016469695 -0.03058463
000030 f7 ff ae 3f 13 c2 d6 c0 7e 7a 61 bf 22 1e c6 c0
       1.3671864 -6.7111907 -0.88077533 -6.1911783
000040 88 c6 0c 3e cc 87 84 c0 1c cc 0b 3d e0 98 3c c0
       0.13747609 -4.141577 0.0341302 -2.9468307
000050 58 0d 4b bf 6f a6 53 c0 25 42 81 c1 4b db a9 be
       -0.79317236 -3.3070333 -16.157297 -0.3317512
000060 83 43 9b c0 b2 1e b3 bf bc be 91 3e 9c 05 88 c1
       -4.851991 -1.3993742 0.2846583 -17.002739
000070 c6 83 24 3e 3b 89 f6 bf e2 fe 09 3d 6d 0d 9b 3d
       0.16065893 -1.926063 0.03369034 0.0757092
000080 59 11 ce bf 0f 70 85 bf 37 01 36 3e ea f4 77 3f
       -1.6099044 -1.0424823 0.17773901 0.96858084
000090 b5 92 03 bf a2 b1 92 be 4f 42 de bf 93 ea 0a bf
       -0.5139573 -0.28651148 -1.7363986 -0.5426418
0000a0 72 ef aa bf 19 06 b3 3e 1f c7 a9 be e5 d8 fa 3b
       -1.3354323 0.3496559 -0.3315973 0.0076552504
0000b0 39 7e 8a 3d 74 7c 00 3f 09 fd 75 c0 f0 01 9c c0
       0.06762356 0.501899 -3.843569 -4.8752365
0000c0 7c 9f 7d bf c8 81 97 3e 68 48 ca bf 96 64 b4 c0
       -0.9907148 0.29591203 -1.5803347 -5.6372786
0000d0 1e 3a c3 be a0 c4 4c c0 dd fd 21 c1 59 fa 73 bf
       -0.38130277 -3.199501 -10.124478 -0.95303875
0000e0 9b 83 1e 3e cf ac 9c bf 2c 88 f6 bd d9 91 10 c0
       0.15479891 -1.2240237 -0.120376915 -2.2589018
0000f0 95 a0 68 c0 96 fc 60 c0 ac 3d f9 bf 15 a5 7c bf
       -3.6348011 -3.5154166 -1.9471946 -0.98689395
000100 0c 08 c8 3e 2c 57 68 bf 6b 6b 44 3d 2d ea 99 3b
       0.3906864 -0.90758014 0.047954004 0.0046971054
000110 80 32 82 bf 07 b6 33 bf a8 bd 4c be 2a 75 14 bf
       -1.0171661 -0.70199627 -0.19994223 -0.5799128
000120 81 ac b1 3e d3 39 87 be ed 27 39 bf 91 20 12 3c
       0.34701923 -0.26411304 -0.72326547 0.008918897
000130 a5 18 1b bf 3b c8 12 3e 9c 42 d5 be d7 f0 ff bf
       -0.6058448 0.14334194 -0.4165238 -1.9995373
000140 b9 5e c6 bf 11 5e c3 3e 72 d1 6d bf 18 b3 0f be
       -1.5497657 0.38157704 -0.92897713 -0.14033163
000150 e0 37 db be 5c 25 ae bf 7f da 56 bf 6a c1 46 bf
       -0.42816067 -1.3605151 -0.8392715 -0.77638876
000160 5f 41 26 3e 68 6e c6 bf e0 cf 11 3f 58 4f b7 bf
       0.16235875 -1.5502443 0.5695782 -1.4321089
000170 f6 8c 46 c0 3b bd 85 c0 d6 bc bb bf ba 3a f3 be
       -3.1023536 -4.1793494 -1.4667003 -0.47505742
000180 7d c5 2d bf 21 9d 69 bf 37 c6 92 be 00 fa e1 3c
       -0.6787947 -0.91255385 -0.2866685 0.02758503
000190 70 c1 de bd e6 60 12 3e a2 67 85 be 82 b5 33 3e
       -0.10876739 0.14294776 -0.26055628 0.17549708
0001a0 f5 2d f6 be 65 84 8d 3e f3 76 2c bf 31 bc e5 3c
       -0.48081937 0.27640072 -0.67369 0.028043838
0001b0 bb e6 89 3e 3d 52 2a 3f 5b 91 6b bf b6 d4 bf bd
       0.26933846 0.66531736 -0.9201867 -0.09366743
0001c0 a9 4e 24 bf e9 1f 4d 3b b4 7d 81 be 38 6a 00 3e
       -0.64182526 0.0031299538 -0.25291216 0.12540519
0001d0 c1 c1 5f 3d fb 4f 85 be 34 45 86 3e 7b d3 ab bf
       0.054628137 -0.26037583 0.26224673 -1.3423914
0001e0 d1 50 b2 bd 1d 73 ff bf 26 bd e3 be 1a be ec bf
       -0.08706821 -1.9957005 -0.44480246 -1.8495514
0001f0 e5 1a 0a c0 23 4b d9 bf 4f 75 80 bf d0 8b 57 bf
       -2.1578915 -1.6976055 -1.00358 -0.8419771
000200 6d c0 1e bf 10 24 32 bf 03 e0 2b 3e 59 f8 7c 3e
       -0.6201237 -0.69586277 0.16784672 0.24704112
000210 40 75 a5 be ac e0 20 bf d5 87 87 bd a6 e2 01 be
       -0.32316017 -0.6284282 -0.06617705 -0.12684116
000220 ed e3 a7 bd 6a 62 5e 3e 8f d3 9e be 28 01 77 3c
       -0.0819777 0.2171723 -0.3102078 0.015075959
000230 61 8f 08 be 9d 16 3d 3f 70 10 95 be 9a 77 a1 be
       -0.13335945 0.7386263 -0.29114103 -0.3153656
000240 f0 60 12 be 35 c7 06 3e 4a 7d 72 be a0 ef 32 3e
       -0.14294791 0.13161929 -0.23680606 0.17474222
000250 a8 4d d0 bd d7 f6 46 bf f9 43 bf 3e 76 1f 8b bf
       -0.10171062 -0.777204 0.37356547 -1.0868976
000260 91 30 14 be ca 25 3c bf d2 03 9d bd 50 5b d7 bf
       -0.14471652 -0.7349516 -0.07666744 -1.6824741
000270 bb f7 ef be 01 01 dc bf 8d 2d 92 bf 20 29 da bf
       -0.4686869 -1.7187806 -1.1420151 -1.70438
000280 91 79 7a be be 4d 3b bf 52 2b 87 3e 3a d2 a3 3d
       -0.24460436 -0.731655 0.26400238 0.07999082
000290 65 d6 2d be a8 f4 9f bf 0b b8 a8 3d 61 bc 94 3e
       -0.16976316 -1.2496538 0.082382284 0.29049972
0002a0 35 a0 ec bd ab 9b 2b 3e df 39 25 bf fb 74 01 3c
       -0.115539946 0.16758601 -0.6454143 0.0079014255
0002b0 19 cc 49 3d 1c 7b 02 3f 0a e9 83 be 09 d2 8b be
       0.04926691 0.509691 -0.25763732 -0.27308682
0002c0 64 36 84 3d 53 fe 16 bb 91 71 ad bd 39 ec ef 3d
       0.06455687 -0.0023039773 -0.08468927 0.11714978
0002d0 ae b8 32 3e 95 b4 10 bf bb 83 03 bf 60 9d 27 bf
       0.17453262 -0.56525546 -0.5137288 -0.6547451
0002e0 e9 67 10 3e 38 29 36 bf 3d 42 b4 bd 66 94 6d bf
       0.14102139 -0.71156645 -0.088016964 -0.92804563
0002f0 46 93 a3 be d6 b8 8b be 96 9a b2 be ee 69 9f bf
       -0.31948298 -0.27289456 -0.34883565 -1.2454202
000300 54 1c 85 be e3 39 c4 bf 39 5b 2f 3e b4 52 f1 3c
       -0.25998175 -1.5330166 0.17124642 0.029458381
000310 09 26 57 3e b6 04 18 bf ce 8b 3e 3d 1f 09 15 be
       0.21010603 -0.5938219 0.046520047 -0.1455426
000320 95 b6 8a bc c4 01 8e be 68 c0 f6 be 1c 49 88 bd
       -0.016932765 -0.27735722 -0.4819367 -0.066545695
000330 60 c9 77 3e 75 19 2e 3f 19 e2 e5 bd 4f ed db bd
       0.24197912 0.68007594 -0.11224765 -0.107386224
000340 41 76 a8 be 02 bb ea 3e 95 d1 97 bc 08 c6 18 be
       -0.3290272 0.458458 -0.018532554 -0.14919293
000350 5f af 1b 3e a7 d4 02 bf d6 d9 9d be 66 8c 77 bf
       0.15203618 -0.5110573 -0.30830258 -0.96698606
000360 2b 9b 39 ba 38 db e3 be 37 31 18 be 1b 95 14 bf
       -0.0007080312 -0.44503188 -0.14862524 -0.58040017
000370 ec 3e 09 bf 02 d6 b3 be 14 7b 95 bd 6c 95 d5 be
       -0.53611636 -0.35124213 -0.07298866 -0.41715562
000380 2d 17 46 be ba f8 e1 bc 50 e9 57 bd fc 99 b5 3d
       -0.19344778 -0.027584422 -0.05271274 0.08867261
000390 ba 39 de 3c fc ef 36 bd 85 92 62 3e c8 dd 8c be
       0.027127136 -0.04466246 0.22126205 -0.27512956
0003a0 3c 2e 45 3f a3 b8 ba 3e 0e ce 66 3d 0e 14 02 bd
       0.77023673 0.36468992 0.056348853 -0.031757407
0003b0 b1 cd ab bc eb 7c a5 3e d0 ce 0a bf c5 89 07 3f
       -0.020972105 0.32321867 -0.5422182 0.52944595
0003c0 a7 b7 81 be c4 42 47 3e 53 55 a9 3e 51 a0 be 3c
       -0.25335428 0.19459063 0.3307291 0.023269804
0003d0 c5 2b 5d be dd 69 e2 bd 29 ef 60 be e2 75 6f be
       -0.21598728 -0.11055348 -0.21966232 -0.23384812
0003e0 e0 d4 d3 bb 53 c6 17 bf 4c 64 46 be 2c e4 9e be
       -0.0064645857 -0.59286994 -0.19374198 -0.31033456
0003f0 89 38 e2 bd eb ff 47 3f 1e c6 3f bf c8 91 1c bf
       -0.110459395 0.78124875 -0.7491168 -0.61159945

mlp1.bias f4 [64]
000000 81 63 ec bd 5f 15 00 be 82 27 19 3d 81 42 96 3c
       -0.11542416 -0.12508152 0.037391193 0.018342258
000010 58 3e 10 3e 1c 23 1b 3e 97 49 86 bd 93 93 e2 bb
       0.14086282 0.15150112 -0.06557005 -0.006914565
000020 21 bf 60 be 7e e7 90 3d cd 05 3c 3e 19 8c 16 3e
       -0.2194791 0.07075404 0.18361588 0.1470188
000030 06 1f 16 3e cb 94 33 3e d2 09 51 3d f3 81 66 be
       0.14660272 0.17537229 0.051034756 -0.22510509
000040 7b f5 9b 3d 5d 14 3a 3e 91 a1 0a 3e fd 9c d8 3d
       0.07615181 0.1817183 0.13538195 0.10576818
000050 89 fc d4 3d 2f 0a 19 3d 2d 29 b0 3d 25 91 22 3e
       0.1039973 0.037363227 0.08601604 0.1587568
000060 19 8d b4 3c a3 cb 3e 3e 2a 08 69 3d e8 ba 03 c0
       0.022039937 0.18632369 0.05689255 -2.0582829
000070 48 bc 03 c0 31 ce b8 bc 73 87 d1 3d a1 d4 a9 3c
       -2.0583668 -0.022559257 0.10230913 0.020731272
000080 44 78 95 3d 45 71 c2 3d 6c 6f c5 bc cc db 04 c0
       0.072983295 0.09494261 -0.024100982 -2.0759153
000090 c9 35 03 c0 86 0d 45 bf 1a e5 d8 3c f2 41 30 bc
       -2.0501578 -0.7697376 0.026476432 -0.01075791
0000a0 98 65 f3 3d 0c 55 04 3e 82 fa 84 bb e9 ff 6c 3d
       0.11884612 0.12923068 -0.004058183 0.057861242
0000b0 2a ab 9e bd 96 18 92 bd 65 b3 a6 3d 6a 9d a2 bb
       -0.07747491 -0.07133596 0.081396855 -0.004962613
0000c0 fb 2a 2f be f4 ab ae 3d 91 88 78 3d cb 6e 6f 3d
       -0.1710624 0.08528891 0.060677115 0.05845527
0000d0 37 94 19 3d da 84 fa 3c f6 fd 1f bd 07 54 45 be
       0.037494864 0.030580927 -0.039060555 -0.19270335
0000e0 83 0f 99 bc cf d2 36 be 39 43 b5 3d eb b1 ec 3d
       -0.018684154 -0.17853855 0.08850712 0.11557373
0000f0 83 dd ed 3d 99 1c 0b 3e 20 78 15 bc dd ac 90 3d
       0.11614516 0.13585128 -0.009122878 0.07064221
