saves/transformer.pth (torch, 803686 bytes, 64 tensors)

palyer.weight f4 [2, 32]
000000 21 82 98 3d bf f1 30 bf d3 37 64 3f 74 a4 8e be
       0.07446695 -0.69118875 0.8914768 -0.27859843
000010 fc aa 2f bf 10 31 b7 be df 06 c5 be a9 98 67 3f
       -0.68620276 -0.3577962 -0.38481805 0.90467316
000020 db 8c 0f 3f 67 58 5f 3c e8 43 02 bf be 07 0c 3e
       0.56074303 0.013631917 -0.50884867 0.13674828
000030 b3 c5 af bf 82 e1 84 be 73 a0 4f 3e c5 ae 2d 3f
       -1.3732208 -0.259533 0.2027605 0.678448
000040 6a 53 66 c0 fa ab 82 be 14 31 b2 be e1 b4 aa bd
       -3.5988412 -0.25521833 -0.3480307 -0.08335281
000050 ad 10 75 3f 19 b9 4a 3f c5 1a 80 bf bc 4c af 3e
       0.9572857 0.79188687 -1.000817 0.3423823
000060 84 ec 26 3e 87 07 0e be 57 47 26 bf 9b 1b 8b bf
       0.16301161 -0.13870059 -0.64952606 -1.08678
000070 6a b6 c4 3e 0a 28 6d bd 8e 05 87 bf 27 d8 54 be
       0.3842042 -0.057899512 -1.054857 -0.2078558
000080 84 f4 94 be ac 83 31 bf 3c e3 a6 3f aa bc 8c bf
       -0.290928 -0.6934154 1.3038096 -1.0995076
000090 33 d9 44 bf 97 a7 e4 3e 35 32 8d bf 0c 55 6f 3f
       -0.7689392 0.4465911 -1.1030947 0.93489146
0000a0 72 67 22 3f 3e 00 67 bf 1e 80 3f bf f8 74 8f 3e
       0.63439095 -0.90234745 -0.74804866 0.28018928
0000b0 b6 2e b1 be c5 a4 88 3d ac 7f 6d 3e 93 2a 58 3f
       -0.3460595 0.06672052 0.23193234 0.84439963
0000c0 c2 ff 13 3f 58 26 d9 3f f0 06 91 be f1 9a ae bd
       0.5781213 1.6964827 -0.28325605 -0.085256465
0000d0 7f aa a0 bf 4f ed 4a 3f 9d 2c 7b bf 8c 5e 8f 3e
       -1.2552031 0.79268354 -0.9811495 0.2800182
0000e0 cd c1 61 bf c0 b6 2f bf 5f 9b 1a bf bf fe b3 bf
       -0.8818634 -0.6863823 -0.6039333 -1.4062117
0000f0 a7 fb 77 3e af 56 8c 3e 99 3e c9 3f 71 dd 04 bf
       0.24217092 0.27409884 1.5722228 -0.5190039

place.weight f4 [3, 32]
000000 74 bc 22 3e 70 e7 63 3f a4 01 d4 3f 39 3f 56 bf
       0.15892202 0.8902502 1.6563001 -0.8369022
000010 32 9f 36 bf 01 ac d9 be 21 af 21 bf c5 81 4b bf
       -0.7133666 -0.4251404 -0.6315785 -0.7949489
000020 66 ab 13 3e f1 8a a6 3e cf c0 89 3f df 52 c6 3d
       0.14420852 0.3252788 1.0761966 0.09683775
000030 32 5e 75 3f 06 50 87 bf 10 5e a3 3d e7 10 a3 bf
       0.95846856 -1.0571296 0.079769254 -1.2739533
000040 22 be 05 be 3a 95 10 3f 38 f0 35 3e 03 74 df 3e
       -0.13060811 0.564777 0.17767417 0.43643197
000050 25 6c 3e 3e 0c a6 6a bf e4 05 ed be 95 f0 1c bf
       0.18595941 -0.9165962 -0.46293557 -0.613046
000060 de 2a 0e 3f 4c 91 60 bf 01 a0 3c bf 8e e8 91 3f
       0.5553416 -0.87721705 -0.73681647 1.1399095
000070 4c aa 9a be 8b cf 36 bf b9 6f fd be 84 a5 5e bd
       -0.3020805 -0.71410435 -0.494993 -0.054357067
000080 53 e8 45 3f 4a c9 0b 3f 4a 18 11 c0 58 0c 2e 3f
       0.77307624 0.5460402 -2.2671075 0.67987585
000090 c6 09 a9 3f 6d d8 8f 3f 37 8c aa 3f 4d 51 00 be
       1.3206108 1.1237923 1.332404 -0.12531014
0000a0 84 19 14 bf 90 91 8f 3d f4 09 85 3f a8 c2 5e 3f
       -0.57851434 0.07010186 1.0393662 0.8701577
0000b0 7e 8d 86 3f 97 dd c7 3d 9f 96 3a bd f4 5a 93 bd
       1.051193 0.09759062 -0.0455538 -0.07195082
0000c0 26 61 14 3f 98 06 35 3e 8c ee 4d bf c0 44 eb 3e
       0.57960737 0.17678297 -0.8044212 0.4595089
0000d0 b0 ae e0 3e 58 85 5a bf d2 56 c3 bf a6 92 85 3f
       0.43883276 -0.85359716 -1.526087 1.0435379
0000e0 47 13 e1 be cc f2 c0 bd 5b e9 d2 3f 59 10 94 bf
       -0.4396002 -0.0942131 1.6477464 -1.1567489
0000f0 a6 56 91 bd 21 92 1c 3e 21 e3 37 be 58 35 16 3e
       -0.07096605 0.15290119 -0.17957737 0.14668787
000100 90 a1 ac 3e 40 a7 89 3f bc ff 73 3f e0 22 4f bc
       0.33717012 1.0754166 0.95312095 -0.012642592
000110 73 55 28 c0 2c 7c af bf 97 de 35 3e 0f 84 9f bf
       -2.6302154 -1.3709769 0.17760693 -1.2462176
000120 d9 94 c9 be 20 10 27 3f 18 70 1a 3d 8a c3 9d bf
       -0.39371374 0.6525898 0.037704557 -1.2325299
000130 6a e7 a6 3f d8 f5 37 3f 34 44 29 bf 4d 6d 37 bf
       1.3039372 0.718595 -0.66119695 -0.71651155
000140 ed 47 dd 3e 48 e7 ba 3e 58 79 ec 3e ba 51 de 3e
       0.43218938 0.3650458 0.46186328 0.43421727
000150 c1 f0 82 bf b5 1e 6c bf 16 76 a1 be eb 43 6f 3e
       -1.0229722 -0.92234355 -0.31535405 0.23365752
000160 36 c7 1b 3f 81 41 3f bf b5 09 10 3f f4 76 bd be
       0.60850847 -0.74709326 0.5626481 -0.37004817
000170 a3 fe be 3f be 67 5d 3c ba cb 88 bf 19 b7 2d 3e
       1.4921459 0.013513504 -1.0687172 0.16964377

encoder_layer.self_attn.in_proj_weight f4 [96, 32]
000000 36 c1 45 3e 76 6e 6c bd 1e f0 d7 3d e8 35 54 be
       0.19311985 -0.05772253 0.105438456 -0.20723689
000010 2f 94 12 3e cd fb 82 bc bb 76 4d 3d 1c e7 3c be
       0.1431434 -0.015989209 0.05016206 -0.18447536
000020 b5 5b 20 be 5c 83 7f bd 21 e1 31 3c d7 24 db 3d
       -0.15659983 -0.062381133 0.010856898 0.10700386
000030 39 33 0d 3d 94 46 0e be f9 28 0d be 6e 62 16 3d
       0.034472678 -0.13894111 -0.13785161 0.036714964
000040 d6 b1 4d 3d 41 6b 2d be 45 d9 01 3e 12 56 2f 3d
       0.050218426 -0.16935445 0.12680538 0.042806692
000050 07 0b 91 bd ed 5b 3d 3e fc 78 0d 3e 4b 1f a2 bc
       -0.070821814 0.18492098 0.13815683 -0.019790312
000060 6e 5f b9 3d 2f 6c 2d be 5e e5 3e be 45 c0 28 3e
       0.09051405 -0.169358 -0.18642184 0.16479595
000070 c3 ba d4 3d 2c f3 1d 3e 23 c3 16 3e ca 10 a0 3d
       0.103871845 0.15424794 0.14722876 0.07815702
000080 8d 6e 09 3d b8 c8 e7 3d 82 50 49 be 53 b4 3b 3e
       0.033552695 0.11317581 -0.19659618 0.18330507
000090 05 0d 18 3e d4 b4 1a be b4 d8 5a be d5 01 36 be
       0.14848717 -0.15108043 -0.21371728 -0.17774136
0000a0 3d 13 5d 3e 6d aa b2 3c 0c d1 43 be 8c fb 57 3e
       0.2158937 0.021809781 -0.19122714 0.21092051
0000b0 26 5d c7 3d 15 5d 76 bd 99 85 09 be e5 23 4d be
       0.097345635 -0.060147364 -0.1342987 -0.20033224
0000c0 58 04 91 3b f6 9c f2 3d c9 14 e7 bd 4c 7a d4 bc
       0.0044255666 0.11846344 -0.11283261 -0.025937222
0000d0 50 cd b2 bd b6 89 dc 3b 8f 4a ee 3c 63 de 03 3e
       -0.087305665 0.0067302836 0.029088287 0.12877803
0000e0 9a 0f 4a be 12 89 95 bd ad 3f 07 3e 01 a5 35 3e
       -0.19732514 -0.07301535 0.13207884 0.17738725
0000f0 01 2c c7 3c 61 df 54 3e bc d1 22 3e 22 fb dc bd
       0.024312975 0.20788337 0.1590032 -0.10790087
000100 e5 5a fe 3d b9 aa 2a be b3 5d 83 bd 09 51 f0 3c
       0.124196805 -0.16666688 -0.06414356 0.029335516
000110 ad 42 4c 3e a4 b9 22 3e 2a 07 cb 3c 10 9e 0e 3d
       0.1994731 0.15891129 0.02478369 0.03481871
000120 7c d9 e7 3b 1e 14 73 bd a0 23 47 be c7 3b 02 3e
       0.0070754867 -0.059345357 -0.19447184 0.12718116
000130 8a 81 52 be f4 4b 09 3e 1c e6 80 bd 6f 6c 5d be
       -0.20557228 0.1340788 -0.0629389 -0.21623395
000140 1b 0e 1b be 23 5e bf 3d da 46 b5 bd 6c 0c dc 3d
       -0.151421 0.09344127 -0.088514045 0.10744557
000150 fe e1 45 bd 70 66 ef bd b1 b9 d9 3d 78 82 1d 3c
       -0.048311226 -0.1168946 0.10631121 0.009613626
000160 67 06 f1 bd 98 82 4f 3d 7b 71 1f be 06 6f 8b bd
       -0.11768799 0.050661653 -0.15570633 -0.068082854
000170 3b 98 ca bd a9 c2 83 3c 41 e8 fd 3d 52 6e 70 bd
       -0.09892317 0.016084032 0.123978145 -0.05869896
000180 b3 60 26 be 75 55 0d be 0d 72 a2 3c 27 e5 d1 3d
       -0.16247825 -0.1380213 0.019829774 0.102487855
000190 fd 15 3c 3e d8 8a 43 3e 9a c5 45 be 02 38 33 3e
       0.18367763 0.19095933 -0.1931366 0.17501834
0001a0 a5 66 58 3d c6 1e 40 3e 90 31 33 3e d0 53 12 3e
       0.052832264 0.18761739 0.17499375 0.14289784
0001b0 6a fc 3f be c3 13 d0 3c c8 3c 17 3e ec 16 d7 3c
       -0.18748632 0.025400048 0.1476928 0.026256047
0001c0 e7 38 36 3e c5 32 84 bd 16 f7 36 be af 8a 1a be
       0.17795144 -0.06454996 -0.17867693 -0.15091966
0001d0 eb 86 27 be eb 75 77 bd 02 7b 04 be 93 0c 20 3e
       -0.16360061 -0.06041519 -0.12937549 0.15629797
0001e0 ff 21 8d bd e7 5c 75 3d 75 a0 23 3e 81 40 2c be
       -0.0689125 0.05990305 0.15979178 -0.16821481
0001f0 25 60 94 bd b1 4b 4d 3e 3d 54 00 bd dc 0d 1c bc
       -0.072449006 0.20048405 -0.031330336 -0.009524789
000200 22 21 e8 bd 80 c1 24 be ea a5 4c be 2b 20 5a 3e
       -0.113344446 -0.1608944 -0.19985166 0.21301334
000210 13 23 39 3e b2 4c 1a 3e f1 ab ce bd 1c e5 d8 bd
       0.18079786 0.1506832 -0.10091389 -0.10590574
000220 40 97 90 3d 8b 48 5b be 0d 13 93 bd 7c d4 2c 3e
       0.07060099 -0.21414392 -0.07181368 0.16877931
000230 5f a8 b2 3d bc 05 06 3d 58 ef 9d 3d 35 13 12 3e
       0.087235205 0.032720312 0.07711667 0.1426514
000240 6b 31 f9 3d 49 8b 2d 3e 09 e9 03 3c 8e 66 2c be
       0.12167629 0.16947664 0.008051165 -0.16835997
000250 82 ff 32 be 6f 26 d8 3d 86 c7 4b 3e 5f f2 c6 3d
       -0.17480281 0.105542056 0.19900331 0.09714197
000260 65 a5 0a be 28 50 b4 bd c9 69 f5 3d ca 43 44 bd
       -0.13539656 -0.08804351 0.119830675 -0.04791621
000270 75 51 50 3e bd c2 a9 3d 7e b4 83 bd 2b 78 23 be
       0.20343573 0.082890965 -0.064309105 -0.15963809
000280 f7 b2 2e be 18 d0 50 be b7 23 1f be 57 f3 11 3e
       -0.17060457 -0.20391881 -0.15540968 0.14252983
000290 b8 e0 4f 3c d5 f1 1a bd 02 08 e1 39 43 06 8b bd
       0.0126878545 -0.037828285 0.0004292131 -0.06788304
0002a0 d9 c4 25 be ba 17 a7 3d 31 07 41 bd a0 8d 3f 3e
       -0.16188373 0.08158822 -0.047126 0.1870637
0002b0 56 36 23 be 6b ae 51 bc d1 92 4a 3d 29 10 dd 3c
       -0.15938696 -0.012797932 0.04945642 0.026985245
0002c0 ac 3f ed 3d f2 b6 b5 bd 12 70 5a bd 91 fd 0e bd
       0.1158441 -0.08872785 -0.053329535 -0.03490979
0002d0 34 eb aa bd b2 64 7f bd ff ce 56 3e b7 64 22 3e
       -0.08345643 -0.06235189 0.209774 0.15858732
0002e0 d1 1c 95 bd 66 8a 06 bd ad fa c0 3d 0d d9 a9 bd
       -0.07280887 -0.03284683 0.094228126 -0.08293352
0002f0 9d 65 c8 bc 80 a6 aa 3d f0 9e fd bd 87 f1 11 3c
       -0.024462515 0.083325386 -0.123838305 0.008907682
000300 99 7c 28 3e ce 1b fd bc 55 9d 84 3d d7 80 4b bc
       0.1645378 -0.030897047 0.06475321 -0.0124208545
000310 28 26 de 3d c6 5c 7e bd 18 af 83 3d c8 c1 a2 3d
       0.108471215 -0.062100194 0.06429881 0.07947117
000320 58 21 c5 3d ef ac d4 3d e7 28 5d 3e 92 ff 1a 3e
       0.096255004 0.10384547 0.21597634 0.15136555
000330 bb 39 dd 3a 20 97 1c be a0 31 23 3e a8 43 b5 3d
       0.0016878167 -0.15292025 0.15936899 0.08850795
000340 df 5a 23 be 17 6f 08 3e 07 85 29 be bb 41 14 be
       -0.15952633 0.13323627 -0.16554652 -0.14478199
000350 48 5e 03 bd b3 fa 57 3e dd 5b c2 3d 4a 25 20 3e
       -0.032072335 0.21091728 0.09490178 0.15639225
000360 92 9e 1b be dd 5b 01 be 92 d0 a7 bd a4 a4 52 3d
       -0.15197209 -0.126327 -0.081940785 0.051426545
000370 20 ca 4c 3e 72 8a 3b be e5 58 12 3e 7a 08 ce 3d
       0.1999898 -0.18314531 0.14291723 0.100602105
000380 99 1f 21 3e 57 6a bf 3d bf 5f 31 be 62 13 8d 3d
       0.1573471 0.093464546 -0.1732168 0.068884626
000390 ec d6 b5 bc d9 94 49 3e 0c 5a c6 3d fa 24 27 be
       -0.02219721 0.19685687 0.09685144 -0.16322699
0003a0 61 6c bb 3d 7b 88 33 bd 41 0d 3e 3e 72 6a 34 be
       0.09151531 -0.04383133 0.18559743 -0.1761873
0003b0 21 6f 23 3e 42 c8 02 3e 16 88 1a 3e a9 51 47 3e
       0.15960361 0.12771705 0.15090975 0.19464745
0003c0 93 23 28 3d 79 c8 38 bb bd ad 41 3e 58 4a 8c bc
       0.04104955 -0.0028195663 0.18913932 -0.017125294
0003d0 f8 14 03 bd c6 5a 50 3d 71 98 65 3d d6 3c 25 3e
       -0.03200242 0.05086782 0.056053583 0.16136488
0003e0 d0 e5 0a 3c c6 17 27 be 70 20 97 bd 74 3d e0 3d
       0.008477643 -0.16317663 -0.07379234 0.10949221
0003f0 0a d4 e9 bd 04 d8 4b 3e 5f a0 d3 bd e6 c6 98 bd
       -0.11417396 0.19906622 -0.10333323 -0.07459812

encoder_layer.self_attn.in_proj_bias f4 [96]
000000 00 00 00 00 00 00 00 00 00 00 00 00 00 00 00 00
       0.0 0.0 0.0 0.0
000010 00 00 00 00 00 00 00 00 00 00 00 00 00 00 00 00
       0.0 0.0 0.0 0.0
000020 00 00 00 00 00 00 00 00 00 00 00 00 00 00 00 00
       0.0 0.0 0.0 0.0
000030 00 00 00 00 00 00 00 00 00 00 00 00 00 00 00 00
       0.0 0.0 0.0 0.0
000040 00 00 00 00 00 00 00 00 00 00 00 00 00 00 00 00
       0.0 0.0 0.0 0.0
000050 00 00 00 00 00 00 00 00 00 00 00 00 00 00 00 00
       0.0 0.0 0.0 0.0
000060 00 00 00 00 00 00 00 00 00 00 00 00 00 00 00 00
       0.0 0.0 0.0 0.0
000070 00 00 00 00 00 00 00 00 00 00 00 00 00 00 00 00
       0.0 0.0 0.0 0.0
000080 00 00 00 00 00 00 00 00 00 00 00 00 00 00 00 00
       0.0 0.0 0.0 0.0
000090 00 00 00 00 00 00 00 00 00 00 00 00 00 00 00 00
       0.0 0.0 0.0 0.0
0000a0 00 00 00 00 00 00 00 00 00 00 00 00 00 00 00 00
       0.0 0.0 0.0 0.0
0000b0 00 00 00 00 00 00 00 00 00 00 00 00 00 00 00 00
       0.0 0.0 0.0 0.0
0000c0 00 00 00 00 00 00 00 00 00 00 00 00 00 00 00 00
       0.0 0.0 0.0 0.0
0000d0 00 00 00 00 00 00 00 00 00 00 00 00 00 00 00 00
       0.0 0.0 0.0 0.0
0000e0 00 00 00 00 00 00 00 00 00 00 00 00 00 00 00 00
       0.0 0.0 0.0 0.0
0000f0 00 00 00 00 00 00 00 00 00 00 00 00 00 00 00 00
       0.0 0.0 0.0 0.0
000100 00 00 00 00 00 00 00 00 00 00 00 00 00 00 00 00
       0.0 0.0 0.0 0.0
000110 00 00 00 00 00 00 00 00 00 00 00 00 00 00 00 00
       0.0 0.0 0.0 0.0
000120 00 00 00 00 00 00 00 00 00 00 00 00 00 00 00 00
       0.0 0.0 0.0 0.0
000130 00 00 00 00 00 00 00 00 00 00 00 00 00 00 00 00
       0.0 0.0 0.0 0.0
000140 00 00 00 00 00 00 00 00 00 00 00 00 00 00 00 00
       0.0 0.0 0.0 0.0
000150 00 00 00 00 00 00 00 00 00 00 00 00 00 00 00 00
       0.0 0.0 0.0 0.0
000160 00 00 00 00 00 00 00 00 00 00 00 00 00 00 00 00
       0.0 0.0 0.0 0.0
000170 00 00 00 00 00 00 00 00 00 00 00 00 00 00 00 00
       0.0 0.0 0.0 0.0

encoder_layer.self_attn.out_proj.weight f4 [32, 32]
000000 6b 01 cb bd 54 98 e1 3c ee bd 12 be d7 97 23 be
       -0.0991238 0.027538456 -0.14330265 -0.15975891
000010 c6 bb 00 bb ae 05 e3 bd 4a 25 01 be 88 11 06 3e
       -0.0019643172 -0.11085068 -0.12611881 0.13092625
000020 ab ab 23 3e 44 27 b5 bd 63 0c d2 3d d3 88 09 be
       0.15983455 -0.0884538 0.10256269 -0.134311
000030 b6 ef 14 be e4 8d 92 3c e1 26 c8 3d 8b ea a3 bb
       -0.14544567 0.017889924 0.097730406 -0.005002325
000040 f4 12 92 3d 27 d1 6f 3d f2 bb c4 3d 4e da e0 bd
       0.07132521 0.058549073 0.0960616 -0.10979138
000050 9b 8f 81 3d 68 e4 91 bc d3 36 d6 3c 40 1e b3 3d
       0.06326219 -0.017809108 0.02614919 0.08746004
000060 cc 6e 1a be c4 c8 29 be b3 26 24 be 81 2c 33 be
       -0.15081328 -0.16580492 -0.16030388 -0.17497446
000070 9a 7a 27 3d 6f 7d 11 be 04 a4 01 3e d3 db 28 bc
       0.040888406 -0.14208005 0.12660223 -0.010306316
000080 56 8f 7a bc a0 3b 92 3d b6 e1 f4 3d 5f 9f be 3d
       -0.015292963 0.07140279 0.119571134 0.093077414
000090 e1 9e 0b 3e 62 8e f6 3d 0d 66 0b 3e 83 bf 2d bd
       0.13634826 0.12038876 0.13613148 -0.042418968
0000a0 a5 ac 15 be 0b 1b d1 3d 03 59 05 3e 46 ba a3 bd
       -0.1461664 0.10210236 0.13022237 -0.07994513
0000b0 82 87 09 bd 0c ab d6 3d 6b 75 71 bd e0 90 28 be
       -0.033576496 0.10481843 -0.05894987 -0.16461515
0000c0 4e 85 c1 bd 7d 60 bf 3d 60 38 b0 bd d5 0b db 3d
       -0.09449254 0.093445756 -0.08604503 0.10695616
0000d0 ec d6 a3 bb f8 ab 81 3d d2 bf 12 3e 4b e1 1a 3e
       -0.004999986 0.063316286 0.14330986 0.15125005
0000e0 c0 c7 08 be a4 ae cb 3d bb e7 20 3e df 17 10 be
       -0.13357449 0.099454194 0.15713398 -0.14071606
0000f0 2a 23 92 3d eb cb 8a bd 3e a2 4d bc 80 62 ce bd
       0.07135613 -0.067771755 -0.012550889 -0.10077381
000100 dc b1 52 bd 14 ba 31 3c 4d 34 3e 3d 56 b8 fc bd
       -0.05143915 0.010847587 0.046436597 -0.12339847
000110 c7 7e e2 bd 70 f6 ec 3d b5 dc fc bc 85 69 de bd
       -0.11059337 0.11570442 -0.03086696 -0.1085997
000120 de b8 f1 3d 11 e3 1c 3e f5 d6 26 3e 11 80 dc bc
       0.11802839 0.15320994 0.16292937 -0.026916536
000130 4d 02 d6 3d 59 c9 4e 3d 7c 83 49 3d b7 5c 0c 3d
       0.104496576 0.05048499 0.04919766 0.034268107
000140 66 d3 36 bb 4f f0 08 be be ad b6 3b 0c 1a 36 bc
       -0.0027897 -0.1337292 0.005574911 -0.0111146085
000150 b9 a0 9c bd 6a e9 14 3e 94 50 19 bc f9 81 b5 bd
       -0.07647843 0.14542165 -0.00935759 -0.08862681
000160 6b d7 ae 3c 99 3a f9 bc 2e 40 9c bd 00 ef 98 3c
       0.021342954 -0.03042345 -0.07629429 0.018668652
000170 75 21 e9 bd cc 01 73 bd 97 32 87 3d fe 33 32 3e
       -0.113833345 -0.059327886 0.06601446 0.17402646
000180 9e b6 16 be 4b 86 29 3e 30 01 22 be 90 60 1b be
       -0.147181 0.16555135 -0.15820765 -0.15173554
000190 dd 95 63 bd 93 4b 09 3e 0a d2 20 be 5f e4 20 be
       -0.055562843 0.13407736 -0.15705124 -0.15712117
0001a0 af 80 0c 3e ce ce 68 bd 85 84 80 bd f2 e4 b3 bd
       0.13720964 -0.05683785 -0.06275276 -0.08783902
0001b0 50 01 0a 3e ea 80 a4 bd 67 cf ea bd b7 37 a5 bd
       0.13477063 -0.08032401 -0.1146534 -0.080672674
0001c0 3f af a7 3d a2 2e 6a bc ef 2e 42 bc 34 25 fe bc
       0.081877224 -0.014293345 -0.01185201 -0.0310236
0001d0 ee 6e 28 bd c5 31 18 be 31 26 ab bc 7f 5a 89 bd
       -0.041121416 -0.14862736 -0.020892235 -0.06706714
0001e0 a6 09 00 bd 72 ce ef 3d fb b8 23 3e 46 9d 01 be
       -0.0312592 0.11709298 0.15988533 -0.12657651
0001f0 7a c5 1d 3e b1 86 2d 3e ba d8 42 3b 30 cd 0c bd
       0.15407363 0.16945912 0.002973123 -0.03437537
000200 83 16 e0 bd e5 7b a3 bd 0c d5 d7 bd f3 51 ce bd
       -0.10941794 -0.079826154 -0.10538682 -0.10074224
000210 ed 96 5a bc b1 8b 43 bd ba d1 2c bd c9 31 34 3e
       -0.013341648 -0.047740642 -0.0421922 0.17597117
000220 b9 af 12 3e bf 0b 21 be 67 3e 20 be 3e 84 3f 3d
       0.14324845 -0.15727137 -0.15648805 0.046756975
000230 46 4b c8 bc 2e d4 03 3e 7d 01 3c 3c 61 da 60 bb
       -0.024449956 0.12873909 0.011474964 -0.0034309851
000240 e5 34 0c 3e 7e 62 30 3d de 70 b4 bd 5f 7f 0c 3e
       0.13692053 0.04306268 -0.0881059 0.13720463
000250 06 61 83 bd af 28 bf 3d 6f bb de bd fa 8a 15 be
       -0.0641499 0.09333932 -0.10875594 -0.14603797
000260 89 68 9b 3d 3f 89 10 3e 9d 74 2b be 47 99 3b 3d
       0.07588298 0.14114855 -0.16743703 0.045800474
000270 59 80 e2 3b 97 c7 2f 3d a7 78 a8 3c f1 26 14 be
       0.006912273 0.042914953 0.020565344 -0.1446798
000280 82 75 8e bd bb 56 5f bd df bc 11 be a6 bc 9f 3d
       -0.069560066 -0.054526072 -0.14232205 0.07799654
000290 35 92 d8 bc ac 9c d8 3d 19 dc d0 bc 8d e2 0b 3e
       -0.026436904 0.10576758 -0.025495576 0.13660641
0002a0 9b ff 2c 3e 94 3e 74 bd ce 11 32 3e 1c 8a 2c 3d
       0.16894381 -0.05962999 0.17389604 0.0421239
0002b0 8b 6c cc bd a2 6b 7d bd 4c 45 dd bd 7d 1c 8e 3d
       -0.099816404 -0.061870225 -0.10804233 0.069390275
0002c0 36 ae 19 3e 6d 8f 2f 3e 9b db da ba 03 10 b2 3d
       0.15007862 0.17144556 -0.0016697528 0.0869446
0002d0 fb cc 1e bb 75 98 96 bd 67 7c 83 3c 90 16 f8 3c
       -0.0024231065 -0.073532976 0.01605053 0.030284196
0002e0 a9 20 26 be 1a b0 b9 3d b2 bd ac bd 9c 98 15 be
       -0.16223396 0.09066792 -0.08434619 -0.14608997
0002f0 e2 60 15 3e 22 37 fa bd 62 ff 6a bd 33 28 07 3e
       0.14587739 -0.12217547 -0.05737246 0.13198929
000300 7a dd 28 3e 4e a6 c5 3c e7 db 86 bd 51 a2 bf bc
       0.16490737 0.024127152 -0.06584912 -0.023392828
000310 54 f0 e7 3d d2 3b 5a 3d 39 81 2c be 22 df a3 bd
       0.11325136 0.053279705 -0.1684617 -0.080015436
000320 b4 70 09 3e d2 d8 1b 3e 58 fc a9 bd 4c df 12 3d
       0.13421899 0.15219429 -0.08300084 0.035857484
000330 a2 14 a3 3d 6a c9 2d 3d 1f 9d e5 bd 38 c3 b0 3d
       0.0796292 0.04242841 -0.11211609 0.08630985
000340 c0 f2 a8 3d 86 29 d6 bc 2c 49 d7 bd f5 8f 28 3e
       0.08249426 -0.026142847 -0.10512003 0.16461165
000350 d1 71 0b 3e e1 43 f5 bd c4 b2 08 3e b4 f2 09 3d
       0.13617636 -0.119758375 0.13349444 0.033678725
000360 61 ff b2 3d 53 41 0a 3e ce 93 a9 3d 57 96 1d be
       0.08740116 0.13501482 0.08280145 -0.15389381
000370 ca 01 23 3e a3 9c fa bd 29 c5 1f be e8 64 95 3d
       0.15918651 -0.12236907 -0.15602554 0.07294637
000380 9b e2 21 be 80 8d 04 3d 24 f3 a7 bc 47 52 10 3e
       -0.158091 0.032361507 -0.02050168 0.14093886
000390 b7 77 f5 bd 91 5c 24 bc dc 81 a1 bd 10 73 d4 bd
       -0.119857244 -0.010031835 -0.07886097 -0.10373509
0003a0 b9 f5 fc 3d 5c 54 dc bc f3 10 3d bd 31 95 dc bc
       0.123515554 -0.026895694 -0.046158742 -0.026926609
0003b0 0b ae 94 3d 90 b7 93 bd 64 75 1b be 36 e4 2e 3d
       0.072597586 -0.07212746 -0.151815 0.042698108
0003c0 e7 14 2b 3e dd 76 9f 3c 86 5d 81 bc 9c d4 76 bd
       0.16707192 0.019465858 -0.015791666 -0.060261354
0003d0 39 79 1c 3d a2 71 03 3e 34 d9 dd bd c2 8a a2 3b
       0.038201544 0.12836316 -0.10832444 0.004960389
0003e0 ca 82 a9 3c af 3f 74 3d 39 eb 89 bd 63 9a 1e 3e
       0.020692248 0.059631046 -0.06734318 0.15488581
0003f0 0d 81 ef 3d bf f8 9a bd 46 71 aa bd bb 10 01 3e
       0.11694536 -0.07566976 -0.083223864 0.12604038

encoder_layer.self_attn.out_proj.bias f4 [32]
000000 00 00 00 00 00 00 00 00 00 00 00 00 00 00 00 00
       0.0 0.0 0.0 0.0
000010 00 00 00 00 00 00 00 00 00 00 00 00 00 00 00 00
       0.0 0.0 0.0 0.0
000020 00 00 00 00 00 00 00 00 00 00 00 00 00 00 00 00
       0.0 0.0 0.0 0.0
000030 00 00 00 00 00 00 00 00 00 00 00 00 00 00 00 00
       0.0 0.0 0.0 0.0
000040 00 00 00 00 00 00 00 00 00 00 00 00 00 00 00 00
       0.0 0.0 0.0 0.0
000050 00 00 00 00 00 00 00 00 00 00 00 00 00 00 00 00
       0.0 0.0 0.0 0.0
000060 00 00 00 00 00 00 00 00 00 00 00 00 00 00 00 00
       0.0 0.0 0.0 0.0
000070 00 00 00 00 00 00 00 00 00 00 00 00 00 00 00 00
       0.0 0.0 0.0 0.0

encoder_layer.linear1.weight f4 [128, 32]
000000 12 b1 01 3d c7 30 a2 3b b0 82 c7 bd 12 80 79 bd
       0.031663008 0.0049496624 -0.097417235 -0.060913153
000010 59 9b 1b be 37 e0 f5 3d dc 6c ca 3d a2 d3 03 be
       -0.15195979 0.12005656 0.098840445 -0.128737
000020 30 71 f1 bd bf 5e e2 3d 5f 19 ef bd aa 54 30 be
       -0.11789167 0.11053228 -0.11674761 -0.17219797
000030 13 36 dc 3d 97 46 fa bc 37 ec c2 bc 05 1d c7 bd
       0.10752501 -0.030551238 -0.023794277 -0.09722332
000040 56 d5 ec 3d b8 7f db 3d 5f c3 0d be b2 ea c1 3c
       0.11564128 0.1071772 -0.1384406 0.023671482
000050 12 4b 17 be 1f a4 0f 3e 48 b0 00 3c 4e f1 56 3d
       -0.14774731 0.14027451 0.007854529 0.05247622
000060 74 b8 85 3a e5 79 16 3d 81 d9 13 bd 5e fa 87 bd
       0.0010202066 0.03673734 -0.0360961 -0.066395506
000070 25 1d 09 3e b6 fa 33 be 81 29 12 3e 38 be f5 bd
       0.13390024 -0.17576107 0.14273645 -0.11999172
000080 64 20 10 bd 9e dc 35 3c 32 b3 61 3c 0c 62 30 bd
       -0.03518714 0.0110999625 0.013775634 -0.043062255
000090 73 ca c2 3c 3f 16 b6 bd 1a 97 63 bd 95 82 b5 bd
       0.023778176 -0.08890962 -0.055564024 -0.08862797
0000a0 eb e7 66 3d 78 9c 20 3e 78 18 66 bc 6c b4 34 3e
       0.056373518 0.15684688 -0.01404392 0.1764695
0000b0 2c 85 e0 3c a3 b1 f0 3c 96 40 87 3c f2 b2 56 bd
       0.027407251 0.029381579 0.01651029 -0.05241675
0000c0 e6 2a 15 3e ae 25 de 3c a0 79 1e 3e 37 06 fb bb
       0.14567146 0.027117576 0.15476084 -0.007660653
0000d0 83 4c a6 3c 57 30 3b 3d b0 35 9b bd 4d 4a ec bd
       0.020300156 0.045700397 -0.075785995 -0.11537609
0000e0 9f c3 96 bd 34 ef 30 be 91 dd f2 3d 39 7f ff 3d
       -0.073615305 -0.17278749 0.11858667 0.12475438
0000f0 a2 f0 17 3e 03 1c 3f 3c b6 ae 01 3e aa 45 c7 3d
       0.14837888 0.011664393 0.12664303 0.09730084
000100 a7 c6 f4 bd f4 70 60 3d d6 6c a9 3d 63 c5 a3 3d
       -0.119519524 0.05479522 0.08272712 0.07996633
000110 cc 79 8b 3c c0 06 13 be de 4b 77 3d a4 57 2a be
       0.01702585 -0.14358044 0.060375087 -0.16634995
000120 6a b1 2e be f3 3e 90 bd 41 d6 8b 3c 30 e4 d8 3c
       -0.17059866 -0.070432566 0.017069938 0.026475996
000130 c2 5b 0b be 01 1c 16 3d 75 20 25 bd 70 df fc 3d
       -0.13609222 0.0366478 -0.040314157 0.12347305
000140 3d 9f 34 3d 62 f6 0b 3d f7 55 c4 3d 2a bd 7a 3d
       0.044097174 0.034170516 0.09586709 0.061215557
000150 f7 3d 0c 3e c0 e1 a1 bd 3a 14 2f bd 58 16 97 bd
       0.13695513 -0.079043865 -0.0427439 -0.073773086
000160 df 21 d9 bd ba a9 31 3c 1b 2d de 3d 41 69 b4 bc
       -0.106021635 0.010843689 0.10848447 -0.022022845
000170 33 9c f3 bd 1f 47 2e bd 96 c8 a4 3d 80 bf 28 be
       -0.11895027 -0.042548295 0.08046071 -0.16479301
000180 55 0d 96 3d 67 10 2c be 78 20 00 3e 83 55 fd bd
       0.07326762 -0.16803132 0.12512386 -0.12369826
000190 f4 d5 dd 3c b2 df 01 3e e3 0c 1c 3e b5 cb 1c be
       0.02707956 0.12682989 0.15239291 -0.15312083
0001a0 45 39 3a bd 88 f8 e6 3d 07 f5 47 bd 43 cf 3f 3b
       -0.045464773 0.11277872 -0.04881766 0.0029267825
0001b0 bc 4d 2a 3e 64 06 de bc 22 ac d7 bd 01 15 0a be
       0.16631216 -0.027102657 -0.105308786 -0.13484575
0001c0 ce 29 fd bd 33 95 25 3e e2 29 59 bc 75 f2 25 3e
       -0.12361489 0.16170196 -0.013254615 0.16205771
0001d0 6f 0d e1 3d ba f1 27 bd 5e 01 a7 bd 2b d5 ab 3d
       0.109888904 -0.041002013 -0.08154558 0.08390268
0001e0 01 90 2d bd 36 2c 1e be 5c 4b 31 3e de 7d 2f 3e
       -0.04237366 -0.15446553 0.17313904 0.17137858
0001f0 8e 15 22 be 1d a5 2a 3e 8a 76 19 3e 42 e3 00 bd
       -0.15828535 0.16664548 0.14986625 -0.03146673
000200 8e 01 01 be 1b a1 8c 3d 8b 29 a6 bd 0d 50 23 3e
       -0.1259825 0.06866666 -0.081133924 0.15948506
000210 aa f5 db bd f7 51 d1 3d 5d 30 fe 3d f2 97 92 3d
       -0.10740216 0.10220712 0.12411568 0.071578875
000220 2b 99 ce 3d a3 e0 2c 3e a0 28 0d 3d 3b 2c 2a be
       0.10087808 0.16882567 0.03446257 -0.16618435
000230 e0 79 8f 3d e2 d5 1f bc 8f 52 b0 3d 31 96 29 be
       0.07005668 -0.0097555835 0.08609497 -0.165612
000240 e2 92 30 bd fa a1 0a be 14 47 95 bd a8 22 ab bc
       -0.04310883 -0.13538352 -0.07288948 -0.020890549
000250 52 5c 21 3e 3b 88 28 3e 41 35 13 bb 86 92 b5 bd
       0.15757874 0.16458218 -0.0022462162 -0.08865838
000260 a7 4b ac 3d d1 ca 19 be 6c 76 9d 3d 5f 02 49 bd
       0.08412867 -0.15018775 0.07688603 -0.049074527
000270 58 fd a8 bd 7e c2 04 be 65 14 dd 3d 40 77 0b 3e
       -0.082514465 -0.12964818 0.107949056 0.13619709
000280 9c fb 20 3e d0 85 36 3d 13 40 c7 bc c5 56 ed bd
       0.15720981 0.044561207 -0.024322545 -0.115888156
000290 15 ff 1d bd f4 d1 31 be 0d 23 45 3d 3e 46 79 3d
       -0.038573343 -0.17365247 0.04812913 0.060858004
0002a0 d7 ff ec 3c 1d 91 e1 3d 25 1e 33 be d6 de d5 bd
       0.028930588 0.11014006 -0.17491968 -0.10442893
0002b0 98 3c c9 3d c7 4b f7 bd 48 d6 cd 3d aa 64 48 3d
       0.098260105 -0.12075 0.100506365 0.048924126
0002c0 34 75 f4 bc 0f 51 55 bd 9c e3 85 3d 8c 37 21 3e
       -0.029841043 -0.052079257 0.06537554 0.15743846
0002d0 ac 6b 05 be d5 a5 25 3e b4 1f 0b 3e a7 7a 7e bd
       -0.13029355 0.16176541 0.13586313 -0.06212869
0002e0 68 dc 0c be 75 93 04 be 90 67 19 bd dc ef a1 3d
       -0.13755953 -0.12946875 -0.03745228 0.07907078
0002f0 ee 30 f5 bd 77 0f ad 3c cd 67 34 3e 0e ad 72 bd
       -0.11972223 0.021125538 0.17617722 -0.05924707
000300 f3 e4 14 be f0 3c 8a 3d 68 40 24 be 4f 95 e8 3c
       -0.14540462 0.06749904 -0.16040194 0.028391508
000310 73 b0 2c bd fd b2 f4 3d 00 78 26 bd f0 70 11 3e
       -0.042160463 0.11948202 -0.040641785 0.14203238
000320 d0 8f ae 3d 26 b1 42 3d bb b2 96 3d 92 e0 30 be
       0.08523524 0.047532223 0.07358309 -0.17273167
000330 1b c9 e5 bd 2b 1b c4 3c d3 f7 a7 bd e1 e2 ec bd
       -0.112199984 0.023938736 -0.082015656 -0.11566711
000340 9b f0 05 3e 9d 8d e0 3c 32 45 5d bd eb 62 02 be
       0.13080065 0.027411276 -0.054021068 -0.12733047
000350 fe 6f ae 3d 7d f5 b7 3d ca 27 17 3e f1 8d a4 bd
       0.085174546 0.0898237 0.14761272 -0.08034886
000360 08 fc b2 bc 3c 18 e2 bd c2 19 0c be fd 3f 11 be
       -0.021848693 -0.110397786 -0.13681701 -0.14184566
000370 05 d1 9f 3c 0d 08 11 be e0 4b 58 bd ca e7 e1 bb
       0.019508848 -0.14163227 -0.052806735 -0.0068940865
000380 07 74 85 3d 39 46 af bd eb 73 cd bd 33 f8 a5 bd
       0.06516271 -0.08558316 -0.10031875 -0.08103981
000390 ad 62 2d be 18 eb e3 3c 2f f8 1e be ff 58 5d bd
       -0.16932173 0.027822062 -0.15524362 -0.05403995
0003a0 de d3 89 bd 16 2f b1 bc 0e 09 f1 bc 63 f6 6f bd
       -0.067298636 -0.021628898 -0.029423263 -0.058584582
0003b0 b2 db 81 bc 41 ad cc bd 36 dc 6d bd 93 9d 63 3c
       -0.01585183 -0.09993983 -0.058071338 0.013892549
0003c0 25 8c 23 bc ce ba a1 3d 6d d0 01 be 4f 8e ac bd
       -0.0099821435 0.07896958 -0.12677164 -0.08425581
0003d0 e6 c6 84 bd 97 3e a2 3d d9 1b f7 bc 43 ca e2 bd
       -0.06483249 0.07922094 -0.030164646 -0.110737346
0003e0 d6 fc f4 ba d3 46 a8 3d ee 41 50 3d 2c cd e1 bd
       -0.0018691074 0.08216634 0.050844125 -0.110254616
0003f0 a3 ea 32 be 42 fd 34 bc 45 26 c8 3d 8b cc 29 3e
       -0.1747232 -0.0110467095 0.09772924 0.16581933

encoder_layer.linear1.bias f4 [128]
000000 0c 2e 07 3d 83 8d 15 be b7 f1 cb bc 76 e4 91 3d
       0.033002898 -0.14604764 -0.024895532 0.071236536
000010 54 ac 06 3e 8a e5 79 bd db ff 47 bd ac 4e a3 bd
       0.13151675 -0.06100992 -0.048827987 -0.0797399
000020 c7 0c 5e 3d d9 51 91 3d 6f 8f 6b 3d 4d 60 5f bd
       0.054211404 0.07095689 0.057509836 -0.0545352
000030 b4 19 cd bd 01 ce 17 be dd 3a b1 bd 9c 45 34 be
       -0.10014668 -0.14824678 -0.086538054 -0.17604679
000040 06 33 cc bd 2f f8 11 3e 22 00 32 be b0 5c 04 be
       -0.099706694 0.14254831 -0.17382863 -0.12925982
000050 e8 be 8d 3d 37 42 91 bd 96 93 24 bd ee bc 74 bc
       0.06921178 -0.070927076 -0.04017981 -0.0149376225
000060 1d 6b d9 3d ff d7 31 3d c1 0f 1c be ef bc 06 bc
       0.10616133 0.04341888 -0.15240385 -0.008223756
000070 c0 4e ec bb 3f 82 e8 bd 10 83 c1 3d 4d d2 d2 bd
       -0.007211536 -0.113529675 0.09448826 -0.10294018
000080 17 81 c4 3d b0 3d 86 bd 10 be da 3d ee 3f ae bd
       0.095949344 -0.06554735 0.10680783 -0.08508287
000090 32 f4 16 3e 26 23 1f 3e d4 ec 15 3e a2 42 91 3d
       0.1474159 0.15540752 0.14641124 0.07092787
0000a0 74 64 26 be a4 f4 16 3e e6 d9 1c 3d 81 96 12 be
       -0.16249257 0.1474176 0.03829374 -0.14315225
0000b0 cc 42 9e bd a1 d3 2f 3e 9f 4f ed 3d 3d 3d e2 3d
       -0.07727584 0.17170574 0.11587452 0.110468365
0000c0 15 90 1e 3e 81 45 6e bc 06 3d 32 be 9c 36 fb bd
       0.1548465 -0.014542938 -0.17406091 -0.12266275
0000d0 9f 51 0a 3e 6b 46 22 be 77 81 b1 bc ca cd 1a be
       0.13507698 -0.15847175 -0.021668179 -0.15117565
0000e0 91 9b 9f bd d5 a8 ea bd 06 77 09 3d d6 f9 fb bd
       -0.07793344 -0.114579834 0.033560775 -0.12303512
0000f0 30 bd 00 3d 91 c6 13 3b 0b 53 17 3d 37 99 8a 3d
       0.031430423 0.0022548775 0.03694443 0.06767505
000100 31 25 ed bd d8 81 13 3d 5e 1a bc 3c d2 06 43 3d
       -0.11579359 0.0360125 0.022961792 0.047613926
000110 3d d0 25 3e 1a 3e 0d 3e 2d 66 8f bd 47 bd 71 3b
       0.16192718 0.13793221 -0.0700191 0.00368865
000120 43 39 2e be 3a c0 ac 3c 9a df 20 3e 62 6f b0 bd
       -0.17014031 0.021087755 0.15710297 -0.086149946
000130 c7 8f 19 bd d1 c5 19 3e 3c 41 fc bd 70 b2 eb 3d
       -0.037490632 0.15016867 -0.1231713 0.115086436
000140 2b 76 e7 3d 9d e9 0a 3e ee 79 d5 3d ae 10 be 3c
       0.113018356 0.13565679 0.10423647 0.023201313
000150 18 e1 00 3d 0c 5f 16 3d 42 13 a2 3d 51 ee 24 3d
       0.031464666 0.036711738 0.079138294 0.04026634
000160 e4 d5 cc 3d 8a d3 86 bd 3c bf 81 bd 9b ae 12 3e
       0.10001734 -0.065833166 -0.06335303 0.14324419
000170 9e b1 e9 3d 66 8d f0 3c 6c fd 10 be 2f 0b 1d be
       0.11410831 0.029364299 -0.14159173 -0.15336297
000180 0e 54 53 3d 8b 10 2c 3e 96 12 09 3e e2 d5 c7 bd
       0.051593833 0.16803186 0.13385996 -0.09757592
000190 5e 28 f5 3d 47 31 2a 3e c4 b6 52 3d fb 0e 04 3e
       0.1197059 0.1662036 0.05144383 0.1289634
0001a0 c7 50 eb bd 53 46 34 be 8f 99 2a 3e fd 66 21 be
       -0.114900164 -0.17604952 0.1666014 -0.15761943
0001b0 48 fa 72 3d 43 26 df 3d 0c 5c ae bd e7 fc a4 ba
       0.059320718 0.1089597 -0.0851365 -0.0012587578
0001c0 74 ad 03 be 65 98 31 3e 4d 6f ca bd 51 d4 81 3c
       -0.12859136 0.1734329 -0.0988451 0.01584831
0001d0 da 49 bf bd a4 85 2a be 94 86 23 3c 53 6e 8e bd
       -0.09340258 -0.16652542 0.009980816 -0.069546364
0001e0 48 f6 f2 3d 85 c1 f3 3d 58 9a 0f 3e ff fc 3c 3d
       0.11863381 0.11902145 0.14023721 0.046139713
0001f0 2b 02 2e be fc d8 80 bc 4a a9 b0 3d e7 f7 0c 3e
       -0.16993015 -0.015728466 0.08626039 0.13766442

encoder_layer.linear2.weight f4 [32, 128]
000000 51 7e 55 bc b1 13 0a bd 34 b6 87 3d 84 02 12 bd
       -0.013030604 -0.033710185 0.06626549 -0.03564693
000010 93 7f 27 bd 88 f0 eb 3c 45 26 7d 3d fe 27 2d bc
       -0.04089315 0.028801218 0.061804075 -0.010568617
000020 2b 62 7a bd 48 26 46 3d 0e c8 70 3d 84 7a 9a bc
       -0.061128777 0.04837635 0.058784537 -0.018857248
000030 0c 52 db 3b 85 03 5e 3d aa 27 2f 3d 14 29 8b bd
       0.0066931304 0.054202575 0.042762436 -0.067949444
000040 5c 48 7a 3d 7f f8 7a bd 16 2f 55 bd 36 dd 95 bd
       0.061104164 -0.06127214 -0.052046858 -0.07317583
000050 e4 86 55 bb 84 2e a3 bd 42 00 73 bd 30 68 a0 3d
       -0.0032581622 -0.079678565 -0.059326418 0.07832372
000060 ab 84 88 bd 30 15 79 bd dd 2f ac 3d 45 05 78 bd
       -0.066659294 -0.06081122 0.08407567 -0.0605519
000070 7c 6a 70 bc 36 51 34 3c 33 de 15 3b 03 c2 22 3d
       -0.014673825 0.01100569 0.0022868037 0.039735805
000080 fb 1c 1c bd 83 45 1d bc 2d ec a6 bd 1c 2b 66 3d
       -0.038113575 -0.009599092 -0.08150516 0.056193456
000090 5c ed 80 bd fe a1 96 bd d3 09 67 bd cb 61 e1 ba
       -0.06295273 -0.07355116 -0.056405853 -0.0017195282
0000a0 31 cb 2b bd c8 74 a0 3c 27 28 af bd b1 96 8f 3d
       -0.041941825 0.019586936 -0.0855258 0.07011164
0000b0 be ed 6e bd c1 a1 96 3d 1f b7 92 3d a0 af ad bc
       -0.058332197 0.07355071 0.07163834 -0.021201909
0000c0 a7 93 9d bd 98 75 17 3d bc c7 c2 3c 82 8c f1 3c
       -0.07694178 0.03697738 0.023776881 0.029485945
0000d0 03 cf 0a bd 4f 02 50 3d af 54 1a bd 2d 2b 07 bd
       -0.033888828 0.05078345 -0.037678417 -0.03300016
0000e0 6d 68 d3 3c 9a 16 2d bd 04 17 7e 3d b9 dd f4 bc
       0.02580663 -0.042257883 0.06203367 -0.029890882
0000f0 62 29 e8 bb 32 50 27 3d ba 6b aa bd 23 6c 73 3d
       -0.0070850113 0.040847965 -0.083213285 0.0594293
000100 61 ea 14 bc df 42 f7 3c cf 05 a9 3c 64 b5 14 bd
       -0.009089083 0.030183254 0.020632653 -0.0363058
000110 55 27 b0 3d 28 95 96 3d ac c2 ab 3d 97 19 a9 3d
       0.08601252 0.07352668 0.0838674 0.08256834
000120 6f b5 cb bc a4 f6 2e bd ae 1c 3e bd c2 67 8d bc
       -0.024866788 -0.042715684 -0.04641407 -0.01726139
000130 4e 13 99 bc 23 87 2e bd 07 bd 18 3d d9 f4 67 bd
       -0.018685963 -0.042609345 0.037289646 -0.05662999
000140 24 72 1e 3d 05 82 b3 3d 6c b6 24 3d 9e bb 19 bc
       0.03868307 0.08765034 0.040213034 -0.00938311
000150 4a 42 b4 bd 94 db 86 bd 77 94 a4 3d fc d6 95 3d
       -0.08801706 -0.0658485 0.0803613 0.07316396
000160 ce b4 21 bd 52 f2 ae bd 95 d6 83 bc 6d 4d 42 ba
       -0.03947907 -0.08542313 -0.016093532 -0.000741205
000170 b0 7f b3 3a 2d c9 9c 3d 99 99 0f bd 6a e6 9a 3d
       0.001369467 0.07655559 -0.03505859 0.07563479
000180 0a 53 9d 3d d4 da a4 3c 2d be 9e 3d 94 43 5a bd
       0.07681854 0.020123877 0.07751117 -0.053287104
000190 38 1e 56 3d d9 4f 8f bd 5a d6 d5 bb 47 2e 47 3d
       0.052274913 -0.069976516 -0.006525797 0.048628118
0001a0 3d db a9 bd 23 ed 2a bc 29 1a 3c 3d 3f b9 aa bd
       -0.082937695 -0.010432514 0.045923386 -0.08336114
0001b0 2f 2e 0d bd 5e 17 20 bd 2d d2 a5 3d 03 9c 47 3d
       -0.034467872 -0.039084785 0.080967285 0.04873277
0001c0 b0 f2 3a 3d 84 2f 2b bd 2d 2e aa bb fa 5d ac 3d
       0.0456416 -0.04179336 -0.005193493 0.08416362
0001d0 9f e6 4f 3d 3d de fb b9 90 69 b4 bb 5a 60 44 bd
       0.050757047 -0.0004804003 -0.005505748 -0.04794345
0001e0 80 2e 18 bd 4b 83 08 3c 70 60 8f 3d 55 ad 89 3d
       -0.03715372 0.008332084 0.07000816 0.067225136
0001f0 df be 81 bd c7 da 27 3d 98 74 c8 bb 2c 8f 75 bd
       -0.06335234 0.040980127 -0.0061174147 -0.059950992
000200 6b 53 93 bd ba 38 d6 bc 58 40 f0 bc 53 c2 5a 3d
       -0.07193645 -0.026150096 -0.029327556 0.05340798
000210 bc f1 84 bc 99 f6 87 bd 82 1a 63 bd 11 d5 de bc
       -0.01622855 -0.06638832 -0.0554452 -0.027201207
000220 41 73 82 3d 21 9a a2 3d e0 0a 5a 3c 0e 20 e5 bc
       0.06369639 0.07939554 0.013308257 -0.027969386
000230 f4 18 fb 3b 93 e8 eb bc 4f a2 01 3d 3c 6f 5b bd
       0.0076628868 -0.028797423 0.03164893 -0.05357288
000240 ff 3e 8b 3d 7f 0e a4 3d 7c 90 26 bb af 5a 93 bd
       0.06799125 0.080105774 -0.002541571 -0.07195031
000250 ed f9 07 bd 73 96 fa bc 0b 77 36 3d 66 98 e8 bc
       -0.033197332 -0.030589318 0.044547122 -0.028392982
000260 26 b1 14 bd 3a 10 60 bd 10 e8 86 3d 93 6e a4 3c
       -0.036301754 -0.054702975 0.06587231 0.020072257
000270 c5 32 a5 bd 4e 42 bb bc 56 33 a3 bc f7 08 b1 3d
       -0.08066324 -0.022858765 -0.01992194 0.08644288
000280 b7 00 2f bd 01 bd ad bd 0d 92 1e bd cf 53 93 bd
       -0.04272529 -0.08483315 -0.038713504 -0.071937196
000290 41 52 55 3c e5 f2 aa 3d c1 03 a0 bc e2 16 bf 3c
       0.013020099 0.0834711 -0.01953304 0.023326341
0002a0 49 a1 8f 3c 4e e3 8b 3d 76 99 6e 3d 8c cd 2f 3d
       0.017532961 0.06830464 0.05825182 0.042920634
0002b0 a8 3e 70 3d d1 00 ce 3c 5e 10 4b bd 83 3f 2e bd
       0.058653504 0.025146874 -0.049576156 -0.04254104
0002c0 49 1d a2 bd 74 31 88 bd ea 59 56 bd bb 60 94 3d
       -0.07915742 -0.066500574 -0.052331842 0.072450124
0002d0 c1 23 78 bd eb ad 43 bb 4f e6 fa 3c 37 ca 8a bd
       -0.060580973 -0.0029858302 0.030627398 -0.06776851
0002e0 81 63 74 bd a8 2a 29 bd 78 5f 01 3d 66 22 32 bd
       -0.059665207 -0.041300446 0.031585187 -0.043489836
0002f0 d3 70 95 bd 0d e0 e6 bb a5 a8 89 bd 64 97 0c bd
       -0.0729691 -0.007045752 -0.067216195 -0.034324065
000300 1e 34 50 3b cf f6 b4 b9 d6 10 a0 ba 8e d9 e6 3c
       0.0031769346 -0.00034516162 -0.0012212049 0.02817991
000310 a7 3f 2e bc 3b 25 2d 3d eb eb 35 bd ab dc 4d ba
       -0.010635293 0.042271834 -0.044414442 -0.00078530115
000320 5f ba 62 3c 2a ea aa 3d 36 96 6f bd aa 52 86 bd
       0.01383838 0.083454445 -0.05849286 -0.06558736
000330 84 fa 94 bd 82 fc 7e bd 41 b3 9d 3d 0f 89 56 bd
       -0.072743446 -0.06225253 0.077002056 -0.052376803
000340 34 55 51 3d ba 62 12 3d b8 e9 b5 3c 14 25 78 3d
       0.051106647 0.035738684 0.022206172 0.060582235
000350 8a 5b 82 bd 73 d6 a6 bd 4a 09 ff bc ca 42 bf 3c
       -0.06365116 -0.08146372 -0.031132359 0.023347277
000360 c1 33 99 bd 2e 1f 24 3d c8 8d 2b bc 2f 8c 90 3d
       -0.074805744 0.040068798 -0.010470815 0.07057988
000370 91 9a a6 bd ea 02 64 bd 50 59 cf 3c 9d b7 3c 3c
       -0.0813495 -0.05566684 0.025311142 0.011518386
000380 4d a7 8d bd a4 06 bb bb d5 ce a8 3d 23 66 9f bc
       -0.06916676 -0.0057075787 0.08242575 -0.019457882
000390 f6 d2 22 bd cf 62 90 3d 0b 2b 55 bd a2 7e 8c ba
       -0.03975197 0.07050096 -0.052043002 -0.0010718892
0003a0 ea 5d 74 bd 13 1b 30 bd e3 6a 97 3a 98 8a 41 3d
       -0.059659876 -0.04299457 0.001155224 0.047251314
0003b0 29 2f a7 bc db 8b 13 bd 3f a9 32 bd 49 b3 1e 3d
       -0.02040823 -0.03602205 -0.043618437 0.0387452
0003c0 b7 1f 1f bd 58 0b 6c 3d a9 62 44 bd 1d 15 89 3d
       -0.038848605 0.057628006 -0.047945652 0.0669348
0003d0 c7 0b f8 3c 4f dc 92 3d 09 03 68 bd cd 88 1c bc
       0.030279053 0.07170927 -0.05664352 -0.0095541
0003e0 c7 d2 19 3d ec 70 29 3d 32 6f af 3d 4c d4 63 3d
       0.03755453 0.041367456 0.08566131 0.055622384
0003f0 c5 2a a2 bd 9b 30 82 3d 59 c0 1f 3d 36 39 11 3d
       -0.07918314 0.06356927 0.039001796 0.03545495

encoder_layer.linear2.bias f4 [32]
000000 75 60 49 bc 37 95 a4 3d 78 05 24 3d 03 d4 26 3d
       -0.012291064 0.08036273 0.040044278 0.040729534
000010 e2 af d4 bc 4d 9b 97 bc 6a d3 46 bd 2e 3b a3 3d
       -0.025962774 -0.01850667 -0.048541464 0.07970272
000020 42 d9 74 bd 5c cd 8e 3d 2b e9 88 3d 9b 15 4f 3d
       -0.059777506 0.06972763 0.06685098 0.050557714
000030 42 a0 7f 3c 15 69 c4 3c 7a 35 50 bd f7 16 a1 bd
       0.015602173 0.023975888 -0.05083225 -0.07865708
000040 b3 62 9d bd 6e 08 af 3d 0c 8e ad 3d 98 9c 9c bd
       -0.07684841 0.0854653 0.08474359 -0.076470554
000050 a9 de d5 3b be 4e 63 bd 47 aa 14 bd f1 b5 27 3d
       0.0065267873 -0.055495016 -0.0362952 0.040944997
000060 39 7b 1a 3d a3 a8 84 bc 06 5e 70 3b 24 7f 4d 3d
       0.03771517 -0.016193694 0.0036677136 0.05017008
000070 b0 c1 2d bd 2e 4b a8 bd 8d 21 23 3c 1f 8c 83 bd
       -0.042421043 -0.082174644 0.00995673 -0.0642321

encoder_layer.norm1.weight f4 [32]
000000 00 00 80 3f 00 00 80 3f 00 00 80 3f 00 00 80 3f
       1.0 1.0 1.0 1.0
000010 00 00 80 3f 00 00 80 3f 00 00 80 3f 00 00 80 3f
       1.0 1.0 1.0 1.0
000020 00 00 80 3f 00 00 80 3f 00 00 80 3f 00 00 80 3f
       1.0 1.0 1.0 1.0
000030 00 00 80 3f 00 00 80 3f 00 00 80 3f 00 00 80 3f
       1.0 1.0 1.0 1.0
000040 00 00 80 3f 00 00 80 3f 00 00 80 3f 00 00 80 3f
       1.0 1.0 1.0 1.0
000050 00 00 80 3f 00 00 80 3f 00 00 80 3f 00 00 80 3f
       1.0 1.0 1.0 1.0
000060 00 00 80 3f 00 00 80 3f 00 00 80 3f 00 00 80 3f
       1.0 1.0 1.0 1.0
000070 00 00 80 3f 00 00 80 3f 00 00 80 3f 00 00 80 3f
       1.0 1.0 1.0 1.0

encoder_layer.norm1.bias f4 [32]
000000 00 00 00 00 00 00 00 00 00 00 00 00 00 00 00 00
       0.0 0.0 0.0 0.0
000010 00 00 00 00 00 00 00 00 00 00 00 00 00 00 00 00
       0.0 0.0 0.0 0.0
000020 00 00 00 00 00 00 00 00 00 00 00 00 00 00 00 00
       0.0 0.0 0.0 0.0
000030 00 00 00 00 00 00 00 00 00 00 00 00 00 00 00 00
       0.0 0.0 0.0 0.0
000040 00 00 00 00 00 00 00 00 00 00 00 00 00 00 00 00
       0.0 0.0 0.0 0.0
000050 00 00 00 00 00 00 00 00 00 00 00 00 00 00 00 00
       0.0 0.0 0.0 0.0
000060 00 00 00 00 00 00 00 00 00 00 00 00 00 00 00 00
       0.0 0.0 0.0 0.0
000070 00 00 00 00 00 00 00 00 00 00 00 00 00 00 00 00
       0.0 0.0 0.0 0.0

encoder_layer.norm2.weight f4 [32]
000000 00 00 80 3f 00 00 80 3f 00 00 80 3f 00 00 80 3f
       1.0 1.0 1.0 1.0
000010 00 00 80 3f 00 00 80 3f 00 00 80 3f 00 00 80 3f
       1.0 1.0 1.0 1.0
000020 00 00 80 3f 00 00 80 3f 00 00 80 3f 00 00 80 3f
       1.0 1.0 1.0 1.0
000030 00 00 80 3f 00 00 80 3f 00 00 80 3f 00 00 80 3f
       1.0 1.0 1.0 1.0
000040 00 00 80 3f 00 00 80 3f 00 00 80 3f 00 00 80 3f
       1.0 1.0 1.0 1.0
000050 00 00 80 3f 00 00 80 3f 00 00 80 3f 00 00 80 3f
       1.0 1.0 1.0 1.0
000060 00 00 80 3f 00 00 80 3f 00 00 80 3f 00 00 80 3f
       1.0 1.0 1.0 1.0
000070 00 00 80 3f 00 00 80 3f 00 00 80 3f 00 00 80 3f
       1.0 1.0 1.0 1.0

encoder_layer.norm2.bias f4 [32]
000000 00 00 00 00 00 00 00 00 00 00 00 00 00 00 00 00
       0.0 0.0 0.0 0.0
000010 00 00 00 00 00 00 00 00 00 00 00 00 00 00 00 00
       0.0 0.0 0.0 0.0
000020 00 00 00 00 00 00 00 00 00 00 00 00 00 00 00 00
       0.0 0.0 0.0 0.0
000030 00 00 00 00 00 00 00 00 00 00 00 00 00 00 00 00
       0.0 0.0 0.0 0.0
000040 00 00 00 00 00 00 00 00 00 00 00 00 00 00 00 00
       0.0 0.0 0.0 0.0
000050 00 00 00 00 00 00 00 00 00 00 00 00 00 00 00 00
       0.0 0.0 0.0 0.0
000060 00 00 00 00 00 00 00 00 00 00 00 00 00 00 00 00
       0.0 0.0 0.0 0.0
000070 00 00 00 00 00 00 00 00 00 00 00 00 00 00 00 00
       0.0 0.0 0.0 0.0

transformer_encoder.layers.0.self_attn.in_proj_weight f4 [96, 32]
000000 5b 23 9a 3e 5d 29 a3 bd fa d4 a6 3d 48 fa 39 be
       0.301051 -0.07966874 0.08146091 -0.18161881
000010 af 91 d3 3d 18 6f 78 3c fa 75 0d 3e e8 7b eb bd
       0.10330521 0.015163206 0.13814536 -0.114982426
000020 5c 38 7b be 13 41 ac bd 1b 62 a5 3d 65 c6 d1 3d
       -0.24533218 -0.084108494 0.08075353 0.10242919
000030 1e 4d 25 3d ea c1 05 be a2 ef f0 bd 93 1c 05 3e
       0.040356748 -0.13062254 -0.11764456 0.12999181
000040 f5 59 f4 bc 0e 0d 20 be dc f1 45 3d b6 f1 95 3d
       -0.029828051 -0.1562998 0.04832636 0.07321493
000050 38 e2 a2 bc 29 31 25 3e 27 51 a6 3d 8a b9 65 3d
       -0.01988326 0.16132034 0.08120947 0.056085147
000060 8f 44 4f 3d fc 41 23 be 93 7f d0 bd 87 9e cf 3d
       0.050602492 -0.1594314 -0.10180583 0.101376586
000070 f4 1e 55 3e 6c cf 4e 3e 36 cd 04 3e 08 9e 4f 3d
       0.20812589 0.20196313 0.12968907 0.05068782
000080 e0 3b 88 3d fb 70 82 3d af ba 16 be 3d 66 f3 3d
       0.06652045 0.063692056 -0.14719652 0.11884735
000090 87 2b ff 3c fd e3 0e be b4 08 3d be cb ca 00 be
       0.031148685 -0.13954158 -0.18460351 -0.1257736
0000a0 15 f5 3d 3e ac 45 8a bd 64 bf df bd ec 37 44 3e
       0.18550523 -0.0675157 -0.10925177 0.19161958
0000b0 9d b7 1e 3e 39 04 4f bd d4 27 f4 bd ef c3 4c be
       0.1549973 -0.050541136 -0.11921659 -0.19996618
0000c0 dd de 94 3c 50 25 25 3e 51 14 1b be 83 e3 fc bb
       0.018172676 0.16127515 -0.15144469 -0.007717551
0000d0 fa 93 ff bd 0e a9 44 bd 71 3d dc 3c 63 b3 d7 3d
       -0.12479396 -0.048012786 0.026884766 0.10532262
0000e0 db 4f 5e be a1 d5 ce bd 70 74 f4 3d 37 c7 55 3e
       -0.2171015 -0.1009934 0.11936271 0.20876776
0000f0 bd 49 03 3e c6 de 7d 3e 01 96 71 3e e6 35 0d be
       0.12821098 0.24792013 0.23592378 -0.13790092
000100 3e c3 84 3d b1 e6 95 bd 69 5c 6f bd 4c 51 c1 3c
       0.06482552 -0.073193915 -0.05843774 0.023598336
000110 bb d0 3d 3d cf a5 b5 3d 17 ca 2d bd ef d7 ae ba
       0.04634164 0.08869516 -0.042429056 -0.00133395
000120 19 96 8e bb 2d 1c b4 bc 96 e2 86 be f1 0a 45 3d
       -0.004351389 -0.021986092 -0.26344746 0.048106138
000130 cd 18 4f be 41 86 02 3e 5c 28 02 be b7 4a 7e be
       -0.20224304 0.12746526 -0.12710708 -0.24833189
000140 d8 9f 14 be 58 77 c7 3d 02 e2 91 bd 29 4a ae 3d
       -0.145141 0.0973956 -0.07123186 0.08510239
000150 03 c1 a7 bd 2e 63 a1 bc be c0 de 3d ef 28 8c bc
       -0.08191111 -0.019700613 0.108766064 -0.017109362
000160 94 d4 a9 bd a5 09 27 3d a8 45 2c be 3a 7a 6a bd
       -0.08292499 0.040780682 -0.16823447 -0.05724547
000170 14 7c 49 3c ba 1f 7f bc d8 bb b0 3d 10 09 67 bd
       0.012297649 -0.015571529 0.08629578 -0.056405127
000180 92 26 15 be 15 b7 21 bd 3b fc a7 3d 96 31 97 3d
       -0.14565495 -0.03948124 0.08202406 0.07382505
000190 99 28 1b 3d 3a bf 50 3d eb 4d 67 be c8 59 ce 3d
       0.037880514 0.050963618 -0.22588317 0.10075718
0001a0 9d 10 c7 3d 7e 40 8f 3e 3e 1a 18 3e f7 a7 0f bc
       0.097199656 0.2797889 0.1485376 -0.008768073
0001b0 6d 6a 64 be 19 70 29 bc db 30 7e 3d 00 42 d2 bd
       -0.22306223 -0.010341668 0.06205831 -0.10266495
0001c0 d7 de f0 3d cc 89 ec bd 5a ba ee bd 7a da 3d be
       0.11761253 -0.1154972 -0.116566375 -0.18540373
0001d0 2f 9d 10 be 3e e9 61 bd c4 d4 a0 bd ae 9c 93 3d
       -0.14122461 -0.055154078 -0.07853082 0.07207619
0001e0 61 93 77 3d a2 25 80 3d ce ea 83 3d 41 ff a4 bd
       0.060443286 0.06257178 0.0644127 -0.08056498
0001f0 ab 42 12 3c 29 5a c9 3d 77 63 b2 bd 8e 95 9d 3d
       0.008927028 0.0983165 -0.08710378 0.07694541
000200 44 b0 19 bd cb 61 55 bd 6e 38 cc bd dd b3 1a 3e
       -0.037521616 -0.052095216 -0.099717006 0.15107675
000210 f9 26 d4 3c a7 0a 5b 3d 3e 2a f9 bd 53 bc 9e bd
       0.02589749 0.053476956 -0.1216626 -0.07750764
000220 32 e6 07 3e da 44 df bd fb e2 13 3c 69 b1 10 3e
       0.13271406 -0.10901804 0.009026284 0.14130177
000230 0d a1 3c bc 34 9d e6 bd d1 03 05 3e 92 4a 4e 3d
       -0.011513007 -0.11260453 0.12989737 0.050364085
000240 c2 b9 2d bc 1b a1 ef 3d 6f ee 57 b9 9c 38 15 be
       -0.01060337 0.1170065 -0.00020592821 -0.14572376
000250 40 41 a3 bd ff 41 66 bd 64 e9 39 3e 91 ac 7c 3d
       -0.0797143 -0.056215283 0.18155438 0.06168801
000260 69 83 01 bc bf ff c8 bd cb 99 97 3c 2f 72 88 3c
       -0.007904866 -0.09814405 0.018505951 0.01665601
000270 ec f8 90 3e 18 c8 9d bd b9 80 24 be 58 7e 98 bd
       0.28314912 -0.077041805 -0.16064729 -0.07445973
000280 93 5d 18 be b6 00 42 be e8 31 82 bd e6 16 5a 3d
       -0.14879446 -0.18945584 -0.06357175 0.053244494
000290 5c 51 b6 bd c1 c3 32 bd a5 99 83 bd 56 14 01 bd
       -0.08902237 -0.043643717 -0.0642579 -0.031513534
0002a0 42 4c 03 3a c5 7a 9c 3d 8f 1d 20 3d 73 fc 29 3e
       0.0005008617 0.07640604 0.03909069 0.16600208
0002b0 4e 7b 24 be 4c 6a 7e bd 01 0b 73 3d f0 6f 8f bd
       -0.16062662 -0.06211309 0.059336666 -0.07003772
0002c0 16 a3 a9 3d c0 39 69 bd 17 3c 87 bd 5d ef 88 bb
       0.08283059 -0.05693984 -0.06603258 -0.004178925
0002d0 18 88 7d bd 31 dc 68 be b7 0c 0f 3e a7 b7 fa 3d
       -0.061897367 -0.22740246 0.13969694 0.1224206
0002e0 f6 8f 6e bd 58 a6 af bd d8 54 bf bd ca b0 51 bd
       -0.05824276 -0.085766494 -0.093423545 -0.05119399
0002f0 7e ee 04 bd 23 d8 01 3d d7 94 d8 bd 66 65 0e bd
       -0.032454006 0.031700265 -0.10575264 -0.03476467
000300 8e 87 2c 3e 23 ef 9f bd 9e 2d 04 3d 13 6a ad 3b
       0.16848585 -0.078092836 0.032270066 0.005292186
000310 51 82 36 3d af 73 04 be 0c f3 bf 3d 50 9c e1 3b
       0.044557873 -0.12934755 0.093725294 0.006885089
000320 69 85 8b 3c 81 f3 cc 3d e3 8a e1 3d 4f bc 97 3c
       0.017031388 0.10007382 0.11012819 0.01852241
000330 79 c3 1a 3d 32 39 5d bd 8e 74 60 3a 59 e6 50 3d
       0.037784074 -0.054009624 0.000856229 0.051000927
000340 65 07 fd bd 19 9d d0 3d e9 f5 1f be e0 e7 3b be
       -0.12354926 0.10186214 -0.15621151 -0.18350172
000350 b7 20 b2 bd 5a e4 72 3e c4 78 1c 3e 3a 2d 43 3e
       -0.08697646 0.23719922 0.15280443 0.19060221
000360 25 77 d0 bd ff b8 b8 bd fa ea 86 bd fe f9 b8 3d
       -0.10178975 -0.0901966 -0.06587787 0.09032057
000370 f6 4b 4c 3e 17 d8 1a be d0 c1 3d 3e f1 76 20 3e
       0.19950852 -0.15121494 0.18530965 0.15670373
000380 aa 9a 40 3e f7 fe 8c 3d 51 e1 d5 bd 45 03 fb 3c
       0.18809 0.06884568 -0.10443366 0.030641207
000390 a2 a1 ba bd ae fa 3a 3e 36 a0 84 3d 7b 2f 0d be
       -0.0911286 0.18259689 0.0647587 -0.13787644
0003a0 77 40 3e 3e 38 22 61 bc 2a 82 38 3e 5d 7f cc bd
       0.18579279 -0.013741069 0.18018404 -0.0998523
0003b0 b3 85 11 3e a4 71 ec 3d 4e 76 89 3e 4b 23 25 3e
       0.14211158 0.11545113 0.26848072 0.16126744
0003c0 3c 3a 1a 3c da 52 23 bc cb 8c 54 3e 3a 30 a8 bc
       0.009413298 -0.009968484 0.20756833 -0.020530809
0003d0 f0 4d 8e bc b6 a5 08 bd 1e a4 eb 3c b1 f8 f8 3d
       -0.017371148 -0.03336116 0.02876478 0.12156809
0003e0 c5 ef 1b 3d 6d 4a 47 be 75 33 13 be 1c 65 ef 3d
       0.03807046 -0.19461985 -0.14375098 0.11689207
0003f0 f8 ec 2d be 8f b0 36 3e 5c 85 e9 bd 11 30 52 bd
       -0.16984928 0.1784079 -0.114023894 -0.05131537
